66.model (torch, 422578 bytes, 15 tensors)

conv1.weight f4 [32, 4, 3, 3]
0.15524773 0.0688113 0.19013079 -0.043357074 -0.032439977 0.050721373 0.008307096 -0.07555493
0.013707111 -0.11737731 -0.06530676 -0.084281705 0.37240377 0.47080392 -0.10298168 0.23249763
0.2786508 -0.0736874 -0.08622648 -0.01297891 0.04870125 0.06286184 0.04102863 -0.0400861
0.04910105 0.055819917 -0.043546982 -0.058948543 0.030452102 0.13706993 0.072048195 -0.042128883
-0.0821495 -0.006856541 -0.09454767 0.106516756 -0.141272 0.029971346 0.0042182393 0.06250278
0.06573192 -0.17796722 -0.013100569 -0.09321828 -0.20145994 0.43115678 0.06371375 -0.07331537
0.033205513 0.078543216 -0.18103638 -1.1723325e-05 -0.18675758 0.31388262 -0.017830884 0.038072467
-0.045403134 0.049703367 -0.010171251 0.035551768 -0.013891098 0.034888048 0.022546796 -0.007242087
-0.055607125 -0.012840369 0.061531145 -0.0658434 -0.0385007 -0.022623327 0.06598188 -0.033108566
0.18517156 0.026672833 0.009843086 0.17827271 -0.104370676 0.38751674 -0.054990035 -0.085264765
-0.078696415 -0.029415207 0.37950563 0.039770037 0.120989464 -0.06833339 0.14628646 0.17687334
0.036996398 0.17434408 -0.06693614 0.06644365 -0.022701988 -0.031709794 -0.03315557 0.025242692
0.0019093567 0.01766892 -0.028034613 -0.035734456 -0.00769852 0.045515843 -0.04263408 0.16073145
-0.032316457 0.033496346 -0.070265315 -0.036218386 0.31989115 -0.10872569 -0.2276176 0.24582596
0.14397618 0.068299785 0.0046529975 -0.18829006 -0.18110432 -0.15532403 -0.036444727 0.03176695
0.06826896 0.19245034 -0.063661896 0.07055358 -0.06466693 0.12209471 0.003620894 0.008018473
-0.004287911 0.041507334 0.069948465 -0.025583513 0.02977431 0.019507242 0.02011419 -0.05923823
0.0050418987 0.0813268 0.103709556 0.08533187 0.05976171 -0.11181885 -0.12090465 0.050970614
0.046496388 0.19144927 0.0022504812 0.042394172 0.082126416 -0.1333202 -0.18775672 0.39547253
-0.216711 0.048271615 0.06053939 -0.015730212 0.026268298 -0.14467278 0.09586237 0.4162583
-0.116855785 0.42069918 -0.019205803 -0.0012944817 0.029067552 -0.007156895 -0.026133237 0.0036950747
-0.0060301996 0.023004627 -0.015022846 0.0376016 0.013597247 0.035489276 0.016905118 -0.0043069115
-0.013850626 0.0039624525 -0.02440389 -0.032726146 0.29970273 0.028482137 0.05520421 -0.14753354
0.36537692 0.18583378 0.15057394 0.057464547 0.014502334 -0.0002997777 -0.16409408 -0.16681017
-0.18269832 0.06631818 0.21003409 0.0549569 0.081285715 0.080740675 -0.014871076 -0.057010688
-0.023686957 -0.10510863 0.059912503 0.044602096 0.008914166 0.009118145 -0.015938051 0.016149338
-0.02715554 0.017194452 0.015642388 -0.026777899 -0.033719234 -0.007982512 0.0033483487 -0.035426438
-0.035754103 -0.2121455 0.044026643 -0.17717461 -0.17209408 -0.187535 -0.15382613 -0.24282032
-0.03756903 0.08171118 0.16697305 -0.020676788 0.22536653 -0.034402236 0.06578609 0.039777208
0.11335263 -0.029478585 -0.013259532 -0.017288076 -0.0012677346 -0.038764946 0.0840625 0.0801911
0.028981652 -0.029913474 -0.0030626385 -0.006620964 0.014254747 -0.042719536 0.11705809 0.11312716
0.08163061 0.07311818 0.098720506 0.16994037 0.06725123 -0.038768448 0.27685642 0.16396917
00000000: 43f9 1e3e f0ec 8c3d a5b1 423e 3097 31bd
00000010: c8df 04bd 37c1 4f3d 7c1a 083c 8bbc 9abd
00000020: ca93 603c 8463 f0bd 8dbf 85bd e39b acbd
00000030: b5ab be3e 360d f13e 0fe8 d2bd dc13 6e3e
00000040: 51ab 8e3e 6be9 96bd 8297 b0bd 7ea5 54bc
00000050: f67a 473d b5bd 803d a30d 283d 5331 24bd
00000060: 2f1e 493d 6da3 643d 525e 32bd 0774 71bd
00000070: b076 f93c 0f5c 0c3e 018e 933d 568f 2cbd
00000080: ff3d a8bd d6ac e0bb 35a2 c1bd 7525 da3d
00000090: 9ba9 10be 7886 f53c 2839 8a3b 7501 803d
000000a0: 759e 863d 0a3d 36be c5a3 56bc 3ae9 bebd
000000b0: 844b 4ebe 95c0 dc3e 5b7c 823d 5e26 96bd
000000c0: 8102 083d 44db a03d 9a61 39be 4caf 44b7
000000d0: 613d 3fbe 39b5 a03e 1312 92bc e0f1 1b3d
000000e0: a3f8 39bd c295 4b3d 52a5 26bc bb9e 113d
000000f0: 7d97 63bc c5e6 0e3d 0fb4 b83c 074f edbb
00000100: 4cc4 63bd 6960 52bc 1508 7c3d e8d8 86bd
00000110: e9b2 1dbd 8e54 b9bc 8221 873d d99c 07bd
00000120: 9d9d 3d3e fc80 da3c e544 213c 1f8d 363e
00000130: 4bc0 d5bd 9868 c63e 3b3d 61bd 4b9f aebd
00000140: 962b a1bd 29f8 f0bc 904e c23e e8e5 223d
00000150: 53c9 f73d 60f2 8bbd 1ecc 153e 491e 353e
00000160: 8989 173d 4187 323e d115 89bd 9c13 883d
00000170: 85f9 b9bc 21e2 01bd 23ce 07bd c3c9 ce3c
00000180: 6143 fa3a 69be 903c d8a8 e5bc 4b5e 12bd
00000190: de43 fcbb d26e 3a3d 13a1 2ebd c996 243e
000001a0: 435e 04bd 7733 093d 43e7 8fbd bb59 14bd
000001b0: c6c8 a33e 93ab debd 9714 69be cdb9 7b3e
000001c0: 7e6e 133e c2e0 8b3d 2c78 983b 1ccf 40be
000001d0: 6973 39be 430d 1fbe 1147 15bd 101e 023d
000001e0: 99d0 8b3d b411 453e 2b61 82bd 657e 903d
000001f0: 1870 84bd cb0c fa3d 854c 6d3b ea5f 033c
00000200: 9b81 8cbb 9803 2a3d 2441 8f3d 8494 d1bc
00000210: 41e9 f33c a7cd 9f3c 84c6 a43c c9a3 72bd
00000220: 8336 a53b aa8e a63d ad65 d43d 7ac2 ae3d
00000230: b2c8 743d 4801 e5bd db9c f7bd 90c6 503d
00000240: ff72 3e3d 470b 443e cf7c 133b 83a5 2d3d
00000250: e531 a83d 1785 08be 4c43 40be 607b ca3e
00000260: 7de9 5dbe 75b8 453d 27f8 773d a5dc 80bc
00000270: 9d30 d73c 1a25 14be 7e53 c43d cf1f d53e
00000280: 1652 efbd e265 d73e 7d55 9dbc 99ab a9ba
00000290: 131f ee3c 6384 eabb 5f15 d6bc 1129 723b
000002a0: fb98 c5bb 3374 bc3c 6222 76bc 2304 1a3d
000002b0: fdc6 5e3c 345d 113d 9a7c 8a3c fe20 8dbb
000002c0: bced 62bc 76d7 813b abea c7bc da0b 06bd
000002d0: a372 993e 5f53 e93c cf1d 623d 0813 17be
000002e0: af12 bb3e 364b 3e3e 0e30 1a3e f25f 6b3d
000002f0: 339b 6d3c 7b2b 9db9 4708 28be 49d0 2abe
00000300: 4515 3bbe d3d1 873d 2d13 573e 7d1a 613d
00000310: 2079 a63d 5e5b a53d d0a5 73bc 0a84 69bd
00000320: 260b c2bc 3243 d7bd d066 753d b0b0 363d
00000330: b90c 123c 4664 153c 8490 82bc 9e4b 843c
00000340: 4c75 debc 61db 8c3c 7724 803c 535d dbbc
00000350: 2e1d 0abd 15c9 02bc f86f 5b3b 501b 11bd
00000360: e572 12bd ac3c 59be 4855 343d 436d 35be
00000370: 6e39 30be 2d09 40be 9984 1dbe e4a5 78be
00000380: fce1 19bd 3158 a73d fcfa 2a3e 5e62 a9bc
00000390: 7cc6 663e 5ce9 0cbd dcba 863d 6ded 223d
000003a0: 6c25 e83d 137d f1bc 823e 59bc b99f 8dbc
000003b0: 1d2a a6ba fec7 1ebd f628 ac3d 3b3b a43d
000003c0: ee6a ed3c 1a0d f5bc 8cb6 48bb acf4 d8bb
000003d0: be8c 693c aefa 2ebd 27bc ef3d 36af e73d
000003e0: f32d a73d fcbe 953d fa2d ca3d d904 2e3e
000003f0: 03bb 893d aacb 1ebd 20c0 8d3e 89e7 273e

conv1.bias f4 [32]
-0.061572433 0.23580304 0.022426222 0.25499186 0.035388358 0.11961137 -0.1004061 -0.11894862
0.10702858 0.07853675 0.120440125 0.17567922 0.25945675 0.09332739 -0.15560083 -0.08103838
-0.06767795 0.15274905 0.070868 -0.025016796 0.15941145 0.051206853 0.10986212 0.018456548
0.2699429 0.07007171 -0.03175442 0.027847337 0.27998155 -0.018964037 0.0069859973 0.015725564
00000000: 6033 7cbd 5a76 713e 32b7 b73c 4b8e 823e
00000010: 62f3 103d cef6 f43d b7a1 cdbd 569b f3bd
00000020: cd31 db3d e0d7 a03d 50a9 f63d 41e5 333e
00000030: 84d7 843e 6e22 bf3d d355 1fbe 73f7 a5bd
00000040: bd9a 8abd 3f6a 1c3e 3e23 913d 06f0 ccbc
00000050: c13c 233e 47be 513d 64ff e03d 3032 973c
00000060: f535 8a3e c281 8f3d ec10 02bd 1920 e43c
00000070: be59 8f3e 785a 9bbc cbea e43b e6d2 803c

conv2.weight f4 [64, 32, 3, 3]
0.0047818664 -0.021045284 -0.053396456 0.045698334 0.01834524 -0.056923117 -0.038536277 -0.016200898
-0.026416887 0.008043692 0.023001535 -0.003967201 0.025087323 0.021147627 -0.022494623 0.0398061
0.03461738 -0.051384095 0.025312394 0.023065438 -0.015636994 -0.012471616 -0.027197352 -0.04857325
-0.02570652 -0.047654144 0.0017362913 0.0125949485 0.07633647 -0.04556059 -0.027107377 -0.004011807
-0.0476649 -0.043921944 -0.016718125 -0.008656784 0.02066787 0.0030700988 -0.049280457 0.0026231003
-0.017385984 -0.020547671 -0.034869134 -0.038223967 0.016915902 -0.01872701 -0.032799665 -0.027440319
-0.029796144 -0.013564009 -0.04229972 -0.028173914 -0.041648682 -0.0021511242 0.07375796 0.07586835
0.08898837 0.08111392 0.101325065 0.023960263 0.11741066 0.06968057 0.057352055 -0.011875969
-0.0072331172 -0.018881254 0.011097523 -0.021600103 -0.05160155 0.004604474 -0.059407122 -0.0067636087
-0.030984025 0.010397398 -0.008283562 -0.030834444 -0.048371285 0.00032917366 -0.029082866 0.0064809094
-0.006055221 -0.0047226404 0.0052790875 0.016191734 0.007854632 -0.02705179 0.01869531 -0.02856683
-0.0267601 -0.012535252 -0.01641312 -0.0062708543 -0.009944928 -0.0029330722 -0.029152317 0.0069008544
-0.016846467 0.025781116 -0.012176872 -0.017948698 0.013991692 0.02427339 0.0034848258 0.023156952
-0.032930005 0.082591586 0.019049756 -0.031785708 -0.026491903 -0.06442868 -0.037819367 -0.018920928
-0.015853029 -0.054022096 -0.019597469 -0.006470782 0.015962815 0.026037376 -0.061276946 -0.018147936
0.0129728075 -0.004164985 -0.015305235 -0.033079285 0.035162702 0.011085136 -0.027165366 -0.0439301
0.0021971606 -0.014311994 -0.021538973 -0.030032976 0.012449887 -0.013116691 -0.04713071 0.037610378
-0.030180736 0.0059928196 -0.0144718895 -0.04010891 -0.03857686 -0.04439691 -0.03263194 -0.012094127
0.014164979 -0.072964646 -0.0272442 0.037397757 0.025395444 -0.045852818 -0.008353691 -0.030964637
-0.05471534 -0.08951929 -0.030484967 0.0144127 -0.018835751 -6.7687986e-05 -0.06431207 -0.0022145058
-0.048711505 -0.023339659 0.067156516 0.048094604 -0.046436813 0.01828426 -0.035681482 0.013394955
-0.08587387 0.032900073 0.03252579 0.035137627 -0.052943457 -0.017652992 -0.0680871 -0.0101003805
-0.008265972 0.015935952 0.023537928 0.0027468482 0.026602203 0.051731456 -0.05269272 -0.009603162
0.010382427 0.04977627 -0.023623576 0.054887503 0.0058708587 -0.06304801 0.019504083 0.017402967
0.018837482 0.05180321 -0.04559306 -0.0070706997 0.016766299 -0.0014256944 0.04094244 -0.0034043754
0.0149892075 -0.019312905 -0.0002626406 -0.056991175 0.09877426 0.008034668 -0.05249834 0.0050560073
0.029654969 -0.0007838925 0.07312706 -0.009705855 -0.01693183 0.023434833 0.018675698 0.036969822
-0.0057329466 0.017175993 -0.038729507 0.0068619163 -0.006224959 -0.038435493 -0.003174869 -0.026737794
-0.005061942 0.05228337 0.029370258 -0.0083052255 -0.060676835 -0.015266984 -0.014855104 0.07638066
0.054563325 -0.035170622 0.008592807 0.018202165 -0.039998464 -0.0467228 -0.027545676 0.0008572224
-0.07099105 -0.02875947 0.051052302 0.030440234 0.03257022 0.015808057 -0.046449035 0.0091487095
-0.037219696 0.03764899 -0.0519428 -0.0043777586 -0.01611994 -0.014630267 -0.015298936 -0.097251415
00000000: 34b1 9c3b 2967 acbc 3eb6 5abd 2d2e 3b3d
00000010: c248 963c 3728 69bd 37d8 1dbd bfb7 84bc
00000020: 3a68 d8bc b1c9 033c b76d bc3c 4bff 81bb
00000030: ee83 cd3c ca3d ad3c a546 b8bc b90b 233d
00000040: f4ca 0d3d 2178 52bd f05b cf3c bbf3 bc3c
00000050: 2719 80bc c055 4cbc fbcc debc bff4 46bd
00000060: 7b96 d2bc fe30 43bd 4594 e33a 0b5b 4e3c
00000070: 4c56 9c3d be9d 3abd 4a10 debc 7a75 83bb
00000080: 453c 43bd 7fe7 33bd 73f4 88bc 2fd5 0dbc
00000090: aa4f a93c b633 493b 4eda 49bd 52e8 2b3b
000000a0: 0d6d 8ebc 9753 a8bc f0d2 0ebd bc90 1cbd
000000b0: 3893 8a3c 6369 99bc f158 06bd 85ca e0bc
000000c0: 0b17 f4bc 943b 5ebc 7942 2dbd fbcc e6bc
000000d0: cf97 2abd e0f9 0cbb 6a0e 973d de60 9b3d
000000e0: 893f b63d 0e1f a63d 8483 cf3d 5048 c43c
000000f0: 0075 f03d b0b4 8e3d fde9 6a3d 6d93 42bc
00000100: c903 edbb dcac 9abc 63d2 353c b3f2 b0bc
00000110: 265c 53bd 21e1 963b e254 73bd 43a1 ddbb
00000120: 36d2 fdbc d959 2a3c c7b7 07bc 8498 fcbc
00000130: f820 46bd f194 ac39 313f eebc cf5d d43b
00000140: e06a c6bb 61c0 9abb 32fc ac3b 87a4 843c
00000150: b7b0 003c b79b ddbc e826 993c fc04 eabc
00000160: ff37 dbbc a860 4dbc cf74 86bc bd7b cdbb
00000170: 0df0 22bc c938 40bb d7d0 eebc 9020 e23b
00000180: 9a01 8abc eb32 d33c 8181 47bc 2609 93bc
00000190: 693d 653c fdd8 c63c ad61 643b a6b3 bd3c
000001a0: 9de1 06bd c725 a93d 3c0e 9c3c bb31 02bd
000001b0: 8c05 d9bc 2ff3 83bd 7be8 1abd 1000 9bbc
000001c0: 36de 81bc 4646 5dbd df8a a0bc db08 d4bb
000001d0: 73c4 823c 564c d53c 89fd 7abd fbaa 94bc
000001e0: e68b 543c 6d7a 88bb cfc2 7abc 257e 07bd
000001f0: c406 103d 6e9e 353c e789 debc 0cf0 33bd
00000200: 3dfe 0f3b db7c 6abc 8072 b0bc b707 f6bc
00000210: 9cfa 4b3c 64e7 56bc 220c 41bd 570d 1a3d
00000220: 973d f7bc 6a5f c43b 811b 6dbc 3e49 24bd
00000230: c502 1ebd 89d9 35bd 12a9 05bd 7226 46bc
00000240: 3a14 683c 7d6e 95bd 3b2f dfbc 642e 193d
00000250: 1b0a d03c 2ad0 3bbd ebdd 08bc 8da9 fdbc
00000260: 311d 60bd e455 b7bd 9cbb f9bc 3f23 6c3c
00000270: 6f4d 9abc b6f3 8db8 0cb6 83bd 3e21 11bb
00000280: b785 47bd d032 bfbc 5b89 893d d9fe 443d
00000290: 8734 3ebd dfc8 953c bf26 12bd 8376 5b3c
000002a0: a4de afbd 3ac2 063d c339 053d 79ec 0f3d
000002b0: 3ddb 58bd 029d 90bc 4071 8bbd 117c 25bc
000002c0: 006e 07bc 1d8c 823c 9dd2 c03c 7704 343b
000002d0: ddec d93c 5de4 533d 52d4 57bd 9556 1dbc
000002e0: 0e1b 2a3c 34e2 4b3d 3b86 c1bc b8d1 603d
000002f0: 5560 c03b 511f 81bd 07c7 9f3c ab90 8e3c
00000300: 1051 9a3c 9a2f 543d cabf 3abd 54b1 e7bb
00000310: 7a59 893c 5ede baba 43b3 273d f11b 5fbb
00000320: 4b95 753c 1936 9ebc 06b3 89b9 946f 69bd
00000330: 294a ca3d d7a3 033c 8008 57bd ddac a53b
00000340: faee f23c 237e 4dba a4c3 953d 4e05 1fbc
00000350: 9fb4 8abc 68fa bf3c c7fd 983c ab6d 173d
00000360: 71db bbbb abb4 8c3c d5a2 1ebd edd9 e03b
00000370: befa cbbb 896e 1dbd 7711 50bb 3809 dbbc
00000380: a6de a5bb 1627 563d e599 f03c a412 08bc
00000390: 4688 78bd 5f22 7abc d262 73bc 776d 9c3d
000003a0: cb7d 5f3d 120f 10bd d8c8 0c3c b51c 953c
000003b0: 6ed5 23bd 6860 3fbd 78a7 e1bc 39b7 603a
000003c0: c163 91bd fb98 ebbc 381c 513d cc5d f93c
000003d0: 5a68 053d e67f 813c 5841 3ebd 78e4 153c
000003e0: ae73 18bd d435 1a3d f9c1 54bd 4d73 8fbb
000003f0: f70d 84bc cab3 6fbc 63a8 7abc c02b c7bd

conv2.bias f4 [64]
0.038078148 0.04170545 0.0014249707 0.0011540945 0.014650895 0.0043653417 0.012966519 0.015876569
0.05887471 -0.009370289 -0.0027657694 -0.022339063 -0.058515657 0.05391171 0.009569616 0.10178487
-0.050912857 -0.094377086 0.045987703 0.104222275 0.004856566 -0.04151925 0.06495374 0.034474578
0.090290904 0.031204604 -0.012987446 -0.04607494 0.004851864 0.090914235 0.10510873 0.008678261
-0.014542192 0.01994049 -0.07052983 -0.056034878 0.072749816 -0.07313929 0.027163107 0.0056833695
-0.07359595 -0.0035144002 -0.026182085 0.08391467 0.029353676 0.019433772 -0.0521296 -0.017384233
-0.015186183 -0.06545751 0.16364412 -0.049376324 0.12410571 0.017765732 0.14244084 0.053599615
0.0357342 0.111698516 0.023170058 -0.054692093 0.058089945 -0.052848708 0.050054885 0.033306256
00000000: d5f7 1b3d 55d3 2a3d 15c6 ba3a fc44 973a
00000010: 4f0a 703c 240b 8f3b 8671 543c 940f 823c
00000020: 9c26 713d d785 19bc e941 35bb 6900 b7bc
00000030: 1dae 6fbd 86d2 5c3d e1c9 1c3c 9674 d03d
00000040: 008a 50bd c648 c1bd 9a5d 3c3d 7d72 d53d
00000050: d423 9f3b 1710 2abd 7706 853d 3735 0d3d
00000060: 70ea b83d cca0 ff3c 4cc9 54bc 14b9 3cbd
00000070: 63fc 9e3b 3e31 ba3d 3f43 d73d 442f 0e3c
00000080: 6042 6ebc 3d5a a33c f271 90bd d484 65bd
00000090: dbfd 943d 0dca 95bd 2a85 de3c 8f3b ba3b
000000a0: 79b9 96bd da51 66bb d07b d6bc 74db ab3d
000000b0: 1f77 f03c 9333 9f3c d985 55bd 6169 8ebc
000000c0: 78cf 78bc 960e 86bd 5392 273e d43e 4abd
000000d0: 222b fe3d 7189 913c 03dc 113e 458b 5b3d
000000e0: 065e 123d 31c2 e43d 22cf bd3c d104 60bd
000000f0: b9ef 6d3d e377 58bd 5a06 4d3d 246c 083d

conv3.weight f4 [128, 64, 3, 3]
0.0026066601 0.009434481 -0.012451127 0.0045332066 0.002861202 0.0068136533 -0.018083394 0.012329438
-0.00096155924 0.024416653 0.019209694 0.0071065435 -0.012498655 0.08566626 0.029343469 0.034695234
-0.00121508 -0.013596099 0.015396964 -0.0006321655 -0.010238524 -0.014841025 -0.017481344 0.008707853
-0.02637626 -0.010859779 0.01524763 -0.0079779355 0.017009532 -0.006734883 -0.017009648 0.04964721
0.027659249 0.016671378 -0.004429657 0.0007476117 0.009839511 -0.023876177 -0.0025764906 0.03275682
-0.016655995 0.017264398 0.022155866 -0.04485613 0.011640977 0.010175873 -0.00068249286 0.010009294
0.0012766833 0.014197558 0.016687864 -0.020004533 -0.0014281643 -0.0053578163 -0.008184336 -0.0027066728
0.025448708 -0.002708266 0.07287305 0.03658929 0.02431807 0.016160842 -0.0068403557 -0.011795813
-0.014222426 -0.006613441 0.004802225 -0.027176548 -0.046274126 -0.0035410111 0.013787518 -0.059862107
0.02020453 0.018551134 0.008349362 0.028559413 0.0455155 0.030043839 0.029653922 -0.0014717417
-0.0081198 0.011744151 -0.022176955 -0.005165252 0.026423996 0.014238806 -0.018020237 0.016800717
-0.010040912 -0.008215113 0.009003362 0.018140316 0.004034801 0.005250087 -0.017230075 0.0045404867
0.018671121 0.0077576926 0.00065252336 -0.0035864427 -0.005088248 0.007868643 1.0937798e-05 0.018030908
-0.0014047483 -0.021424089 0.005579009 0.0052475743 0.021431569 -0.08188099 0.0387445 0.0228506
-0.044571042 0.03647798 0.019990629 -0.09726603 -0.012656191 0.010549567 -0.006102973 -0.027312117
0.038453884 0.003417682 -0.00088258844 -0.021378437 -0.00025974348 0.0004754975 0.006733411 0.003383093
-0.01724304 0.038504228 0.032690864 0.013649692 0.020298732 0.015837949 -0.035056632 -0.031107122
0.0037315774 -0.0037262158 0.00903702 0.01093657 0.009842203 -0.010699711 0.015378189 -0.00021080038
0.0037542467 -0.016617654 0.01902084 0.0075777587 -0.008108475 -0.02819116 0.034641467 0.0136605995
0.0023227923 -0.021357937 -0.007844588 -0.046392985 -0.10571259 -0.047382038 -0.06549187 0.079033874
0.03359438 0.030836873 0.031561185 0.035803113 0.00016709184 0.008670808 -0.00540349 -0.0059650694
-0.014564142 -0.011868459 -0.00024855696 0.008221605 -0.03329354 0.0021308449 0.0071569644 0.017675607
-0.00085583754 0.0037820078 0.014392652 -0.002187154 0.005889856 -0.0061480165 0.007967289 -0.0077393423
0.0032492331 -0.014259702 -0.0018624396 0.013669499 0.025741413 -0.012975381 -0.0031437848 -0.0054505267
-0.015411726 0.026663667 -0.0028011047 0.0012617153 -0.018999502 -0.018397022 0.0065277508 0.0021153435
0.0043092594 -0.016590709 -0.00397234 -0.008314492 0.039290413 0.039814334 0.05065815 0.03084517
0.026992844 0.009602149 0.02441864 0.018796181 0.0090337405 -0.010728023 0.014551955 -0.029916642
0.004451362 -0.017420502 0.04947417 0.0077446704 -0.03005793 0.0017499967 0.031617213 -0.010021897
0.049941044 -0.0038669477 -0.0010500337 -0.007291461 -4.4612398e-06 0.037093565 0.0091607645 -0.008691803
0.010320428 -0.028261632 0.011039168 0.013256464 0.027000574 0.027295835 0.004004438 -0.0034269146
0.0030280862 0.02021834 -0.025264384 -0.050953493 -0.011349205 0.042032555 0.00056243135 0.010363643
0.04490113 -0.016604042 0.0041896803 0.049581517 0.008361464 0.0016367354 0.029391322 0.035579097
00000000: 80d4 2a3b 1593 1a3c d0ff 4bbc 4b8b 943b
00000010: 0183 3b3b 1145 df3b a023 94bc 6901 4a3c
00000020: 2611 7cba 6f05 c83c a65d 9d3c 02de e83b
00000030: 29c7 4cbc cb71 af3d b761 f03c 971c 0e3d
00000040: 5243 9fba 2cc2 5ebc 8c43 7c3c e9b7 25ba
00000050: 7bbf 27bc c527 73bc 0935 8fbc 62ab 0e3c
00000060: 0713 d8bc 37ed 31bc 32d1 793c e3b5 02bc
00000070: 9357 8b3c 4bb0 dcbb d157 8bbc df5a 4b3d
00000080: a695 e23c 6a92 883c a826 91bb 5ffb 433a
00000090: e635 213c f997 c3bc 57da 28bb 042c 063d
000000a0: 2772 88bc 116e 8d3c 3880 b53c 10bb 37bd
000000b0: ccb9 3e3c b4b8 263c 52e9 32ba 06fe 233c
000000c0: 6256 a73a e09c 683c fdb4 883c 8ce0 a3bc
000000d0: 3e31 bbba 9f90 afbb 9817 06bc 6f62 31bb
000000e0: cf79 d03c 2a7d 31bb 773e 953d a7de 153d
000000f0: b036 c73c be63 843c 1025 e0bb 3a43 41bc
00000100: 2e05 69bc 90b5 d8bb fc5b 9d3b 5aa1 debc
00000110: f089 3dbd 4f10 68bb 0be5 613c f831 75bd
00000120: f883 a53c 8cf8 973c c3cb 083c 6ef5 e93c
00000130: 766e 3a3d 7f1e f63c c8ec f23c 75e7 c0ba
00000140: e908 05bc 8a6a 403c 72ac b5bc 4641 a9bb
00000150: 2377 d83c e249 693c 2d9f 93bc a8a1 893c
00000160: a382 24bc ae98 06bc d682 133c 009b 943c
00000170: 5d36 843b ec08 ac3b 1626 8dbc 5dc8 943b
00000180: 2ef4 983c 3e34 fe3b 1a0e 2b3a 860a 6bbb
00000190: 51bb a6bb 7beb 003c 7c81 3737 8eb5 933c
000001a0: 881f b8ba 9281 afbc 1fd0 b63b d8f3 ab3b
000001b0: 4291 af3c 38b1 a7bd 8eb2 1e3d 2e31 bb3c
000001c0: 2090 36bd ef69 153d 63c3 a33c 6a33 c7bd
000001d0: ea5b 4fbc 17d8 2c3c 73fb c7bb a9bd dfbc
000001e0: d281 1d3d 30fb 5f3b 825d 67ba d521 afbc
000001f0: 2e2e 88b9 324c f939 f2a3 dc3b e2b6 5d3b
00000200: 4741 8dbc 9cb6 1d3d dbe6 053d f5a2 5f3c
00000210: 8749 a63c 96be 813c 8b97 0fbd 5dd4 febc
00000220: 7b8d 743b 8733 74bb 0210 143c 4d2f 333c
00000230: 3141 213c d74d 2fbc cdf4 7b3c 4c0a 5db9
00000240: cf09 763b bf21 88bc 98d1 9b3c d94e f83b
00000250: 69d9 04bc 26f1 e6bc 36e4 0d3d b5d0 5f3c
00000260: fd39 183b d7f6 aebc 9686 00bc 9206 3ebd
00000270: d87f d8bd ab13 42bd 9a20 86bd 83dc a13d
00000280: 439a 093d 9c9d fc3c 4d46 013d 49a6 123d
00000290: 6035 2f39 0110 0e3c c20f b1bb a176 c3bb
000002a0: 709e 6ebc ed73 42bc c050 82b9 e9b3 063c
000002b0: cf5e 08bd a5a5 0b3b f884 ea3b 6fcc 903c
000002c0: 495a 60ba 90db 773b 28cf 6b3c 5b56 0fbb
000002d0: b1ff c03b 4d75 c9bb 3b89 023c 4f9a fdbb
000002e0: 16f1 543b 86a1 69bc 1a1d f4ba 09f6 5f3c
000002f0: a8df d23c b196 54bc f507 4ebb 559a b2bb
00000300: 7781 7cbc c36d da3c bd92 37bb 2460 a53a
00000310: d8a4 9bbc 5ab5 96bc bee6 d53b 93a1 0a3b
00000320: b034 8d3b 3de9 87bc 672a 82bb 8239 08bc
00000330: fcee 203d 5b14 233d ec7e 4f3d 03af fc3c
00000340: 1920 dd3c 5552 1d3c 9a09 c83c 73fa 993c
00000350: 4102 143c 97c4 2fbc 536b 6e3c bf13 f5bc
00000360: bbdc 913b 71b5 8ebc 6da5 4a3d 01c7 fd3b
00000370: 0c3c f6bc 2560 e53a 0d81 013d e232 24bc
00000380: fb8e 4c3d 9e6c 7dbb 49a1 89ba 35ed eebb
00000390: c2b1 95b6 6cef 173d 0817 163c 1068 0ebc
000003a0: 0317 293c f084 e7bc a0dd 343c a431 593c
000003b0: 4f30 dd3c 849b df3c a937 833b 1696 60bb
000003c0: db72 463b efa0 a53c 41f7 cebc 9cb4 50bd
000003d0: 04f2 39bc 542a 2c3d 2170 133a 45cc 293c
000003e0: 3fea 373d 3305 88bc 9649 893b fd15 4b3d
000003f0: 86fe 083c ba87 d63a 12c6 f03c 63bb 113d

conv3.bias f4 [128]
0.11533544 0.085380845 0.0670654 0.07304946 0.0053295786 -0.0028231833 -0.017241085 0.060635135
0.105761915 -0.011903585 0.036107086 0.043608848 0.0048142555 -0.025903309 0.034838825 0.084432326
0.04254794 0.120071694 -0.027682992 0.08101092 -0.014850032 0.120350756 0.030759862 0.01680174
0.10072865 -0.03171933 -0.049016226 0.07742116 -0.028709363 0.032171067 0.03774746 -0.018468445
-0.0051174085 0.006293289 0.071571946 0.010825835 0.13805121 0.004647125 0.030881317 -0.0054714126
0.08908073 0.02315938 -0.00924142 0.027327042 0.017122027 0.013968864 -0.05894202 -0.027565323
0.14960203 0.0020095904 0.070333816 -0.012470993 0.03917131 -0.014319103 0.02490697 0.031164529
0.030120093 0.12362823 0.08772482 -0.0029924733 -0.0013798897 0.1538929 -0.00020326013 0.060620744
0.03766506 -0.038090773 0.06871889 0.09450196 0.010758943 0.0056822146 -0.012967796 0.09097052
-0.013993455 0.17423126 0.003897681 0.027587347 -0.064054646 0.12906042 0.08059045 -0.0074829427
0.0005857053 0.10168401 -0.0027238184 -0.014889699 0.028599756 0.031247668 0.02048182 0.14138977
0.017319888 -0.008127487 0.0015094868 0.07340561 0.11022561 0.0075559556 -0.03055316 0.0216851
0.0029007571 0.035100035 0.019954493 0.009271946 0.16750216 0.019937037 0.013199436 0.06157459
-0.033678863 -0.027682666 -0.038836345 0.009385472 0.14106157 -0.0042238645 0.022797914 0.08473539
0.031011228 0.013437499 0.0016671799 0.061890893 0.0013662071 0.01238093 0.06536669 0.13340263
-0.049460907 0.04404551 -0.025838252 -0.021590786 0.02301039 0.00041753656 0.10684751 0.0828148
00000000: fd34 ec3d 27dc ae3d 9659 893d f59a 953d
00000010: bfa3 ae3b 2805 39bb 2d3d 8dbc 8c5c 783d
00000020: b499 d83d 4107 43bc 06e5 133d 319f 323d
00000030: e7c0 9d3b 2d33 d4bc 28b3 0e3d dbea ac3d
00000040: c046 2e3d 26e8 f53d 71c7 e2bc 0ee9 a53d
00000050: 8c4d 73bc 757a f63d 1bfc fb3c cda3 893c
00000060: d34a ce3d 21ec 01bd 3dc5 48bd fc8e 9e3d
00000070: e62f ebbc cfc5 033d 159d 1a3d 234b 97bc
00000080: efaf a7bb ef37 ce3b 5094 923d d85e 313c
00000090: 4c5d 0d3e e946 983b d1fa fc3c 8949 b3bb
000000a0: f56f b63d bdb8 bd3c 5369 17bc f6dc df3c
000000b0: 7e43 8c3c aadd 643c 306d 71bd acd0 e1bc
000000c0: 4631 193e 55b3 033b 2d0b 903d 2353 4cbc
000000d0: 1872 203d ac9a 6abc b409 cc3c c14c ff3c
000000e0: 6abe f63c cc30 fd3d 12a9 b33d 5f1d 44bb
000000f0: 6add b4ba 1a96 1d3e 3a22 55b9 754d 783d
00000100: ae46 1a3d 1205 1cbd 7dbc 8c3d 3e8a c13d
00000110: 4746 303c df31 ba3b e176 54bc c14e ba3d
00000120: ce44 65bc ae69 323e 3c70 7f3b dcfe e13c
00000130: 152f 83bd 6a28 043e 9b0c a53d 7933 f5bb
00000140: 048a 193a b53f d03d 1782 32bb edf3 73bc
00000150: 094a ea3c 1cfb ff3c 7dc9 a73c 7bc8 103e
00000160: 70e2 8d3c 2729 05bc f9d9 c53a ae55 963d
00000170: f7bd e13d f397 f73b 9f4a fabc f3a4 b13c
00000180: a11a 3e3b 0ec5 0f3d 9b77 a33c 5ce9 173c
00000190: b085 2b3e ff52 a33c 7242 583c a335 7c3d
000001a0: d9f2 09bd c2c6 e2bc dc12 1fbd 86c5 193c
000001b0: 7272 103e 5868 8abb b1c2 ba3c c089 ad3d
000001c0: 420b fe3c f528 5c3c 4685 da3a 4e81 7d3d
000001d0: 4e12 b33a 62d9 4a3c f9de 853d b39a 083e
000001e0: 8597 4abd 1169 343d beaa d3bc 29df b0bc
000001f0: 4980 bc3c cfe8 da39 ded2 da3d ce9a a93d

act_conv1.weight f4 [4, 128, 1, 1]
0.12829876 0.06336232 0.1186823 0.04971385 -0.007978061 0.10520004 -0.036656216 0.1152163
0.10278507 -0.20816551 -0.010776446 0.27110043 0.13545956 0.16538483 -0.05753691 0.0026893876
-0.022864228 0.22822718 0.17919792 0.049312368 -0.06271496 0.43848637 0.32256815 -0.12896848
0.049715888 0.07106911 0.22488406 0.13025996 -0.29004434 0.34018365 -0.16443254 -0.060335062
0.030871376 0.041457076 0.25129986 -0.004795459 0.25712729 -0.28531253 0.29429877 0.03511866
0.13135244 0.0779226 0.24295166 0.29119807 0.25513563 0.09290002 -0.061001014 0.14672998
0.25811782 0.2771054 0.24130729 -0.07395467 -0.48285753 -0.53950655 -0.002385231 -0.17580003
-0.101102 0.32115313 0.18470787 -0.101139374 0.16776858 0.2314534 -0.021105023 -0.10441923
0.0063486113 -0.2721543 0.1856939 0.20982464 0.09814707 0.024938231 -0.18718873 0.29208878
-0.23672254 0.2812796 0.007902347 -0.41804835 -0.022962486 0.30789387 0.15169115 -0.05267805
-0.013568789 0.014472604 -0.034857202 -0.022763794 0.15958172 -0.17762761 0.047390766 0.29706216
0.038787924 -0.020375881 0.010448439 0.16073696 0.2737547 -0.11494639 -0.08485979 -0.3637468
-0.034271754 0.0062453747 -0.27734202 -0.08619783 0.2686182 0.18965079 0.11150006 -0.15680842
-0.028674575 0.18679947 -0.27023727 0.031117614 0.22565857 -0.2446459 0.31791776 0.12314825
0.3208133 -0.09876364 0.028416147 -0.16613428 0.11770734 0.016718904 0.363971 0.20391041
0.11208169 0.33443657 0.010292786 -0.104511596 -0.03638852 0.18368515 0.1969156 0.051304694
0.13284588 -0.028614268 0.1003022 0.16120444 0.052418873 0.2110498 -0.010160826 0.029708711
0.024708463 -0.25439674 0.041348033 0.2385207 0.035497863 0.033353124 0.031010168 0.16924219
0.041512422 0.22774145 0.22139543 0.081512436 -0.06219744 0.26204744 0.2811148 -0.11545862
0.17871861 0.1850807 0.21501479 0.14741014 -0.17552127 0.27475932 -0.12638769 0.055188905
-0.01433303 -0.025074692 0.14336774 0.008143263 0.24053049 -0.35128713 0.22269048 -0.0679549
0.13639437 0.13522708 0.21447611 0.13184218 0.26421958 0.18428029 -0.08727246 0.118769646
0.16350497 0.23283398 0.072204344 -0.01438702 -0.56501466 -0.6353849 -0.042588267 -0.07315926
-0.09125995 0.23985282 0.25247794 0.107840255 0.038338147 0.20472322 -0.0039010637 -0.111003675
0.021159636 -0.30785108 0.2325935 0.15666528 0.24484387 0.01763136 -0.118751384 0.26651227
-0.17037293 0.23660718 -0.028672015 -0.45168224 -0.1443912 0.19349228 0.08252831 -0.057216704
-0.0070272554 -0.05868983 0.009322703 -0.0012009329 0.22528546 -0.14568153 0.24176857 0.28987578
0.0031080297 0.025717502 0.009238823 0.17141081 0.26729032 -0.11578573 -0.06631806 -0.26571032
-0.15680723 0.16934858 -0.21544005 0.008327125 0.17882273 0.22154938 0.09072666 -0.012883187
0.12565702 0.012425344 -0.18151268 -0.0023580156 0.25007775 -0.22013399 0.1610044 0.1816304
0.27380985 -0.2430012 0.02404566 -0.150174 0.01409142 0.047941208 0.1535247 0.07566586
0.1827938 0.26042172 0.08477746 -0.06930776 -0.058420856 0.2350717 0.12000882 0.19479431
00000000: c060 033e 1bc4 813d b50f f33d c0a0 4b3d
00000010: 6ab6 02bc 1e73 d73d d424 16bd 86f6 eb3d
00000020: fb80 d23d 5729 55be b18f 30bc adcd 8a3e
00000030: e9b5 0a3e a45a 293e d3ab 6bbd 7040 303b
00000040: c34d bbbc 63b4 693e a97f 373e c4fb 493d
00000050: b370 80bd 4981 e03e a727 a53e 5010 04be
00000060: e3a2 4b3d ae8c 913d 0248 663e de62 053e
00000070: b180 94be 8d2c ae3e 0161 28be e621 77bd
00000080: f8e5 fc3c e5ce 293d 60aa 803e 3a23 9dbb
00000090: 30a6 833e 7c14 92be 54ae 963e 96d8 0f3d
000000a0: 4181 063e e295 9f3d 52c8 783e ea17 953e
000000b0: 23a1 823e 5e42 be3d 33dc 79bd 6240 163e
000000c0: 0528 843e c2e0 8d3e 4219 773e 8c75 97bd
000000d0: 1a39 f7be 1a1d 0abf 8951 1cbb ec04 34be
000000e0: 910e cfbd 2f6e a43e 0f24 3d3e 2922 cfbd
000000f0: 87cb 2b3e 1f02 6d3e 71e4 acbc c0d9 d5bd
00000100: 0308 d03b cf57 8bbe 8b26 3e3e 45dc 563e
00000110: 5501 c93d 434b cc3c 67ae 3fbe a98c 953e
00000120: 6567 72be e103 903e d878 013c 6f0a d6be
00000130: d31b bcbc 44a4 9d3e ed54 1b3e f0c4 57bd
00000140: a04f 5ebc 801e 6d3c 6dc6 0ebd 237b babc
00000150: 6469 233e 03e4 35be d21c 423d 8818 983e
00000160: 16e0 1e3d 52eb a6bc ee2f 2b3c 3b98 243e
00000170: 9329 8c3e 0369 ebbd f8ca adbd 053d babe
00000180: 8a60 0cbd 00a6 cc3b c6ff 8dbe 7d88 b0bd
00000190: 5388 893e d133 423e 255a e43d 6392 20be
000001a0: f1e6 eabc 5c48 3f3e 8a5c 8abe 5eea fe3c
000001b0: 0a13 673e 7484 7abe 1ec6 a23e 2635 fc3d
000001c0: a441 a43e 9744 cabd fbc8 e83c 1b1f 2abe
000001d0: 8c10 f13d 15f6 883c 685a ba3e e4cd 503e
000001e0: 168b e53d 453b ab3e 13a3 283c 2d0a d6bd
000001f0: 210c 15bd f617 3c3e 3ea4 493e df24 523d
00000200: c008 083e 7868 eabc 3d6b cd3d c712 253e
00000210: 2cb5 563d 701d 583e 9879 26bc af5f f33c
00000220: 6769 ca3c 4a40 82be 8e5c 293d c53e 743e
00000230: 3566 113d 499d 083d 0909 fe3c d34d 2d3e
00000240: ee08 2a3d 0e35 693e 7cb5 623e feef a63d
00000250: bec2 7ebd 152b 863e 47ee 8f3e 9275 ecbd
00000260: 0302 373e cc85 3d3e d62c 5c3e aff2 163e
00000270: d9bb 33be 41ad 8c3e c66b 01be c30d 623d
00000280: 16d5 6abc 7169 cdbc fece 123e 526b 053c
00000290: a04d 763e e8db b3be f908 643e f02b 8bbd
000002a0: f7aa 0b3e f878 0a3e a09f 5b3e a301 073e
000002b0: ca47 873e f9b3 3c3e e7bb b2bd 803d f33d
000002c0: d96d 273e 086c 6e3e dfdf 933d 89b7 6bbc
000002d0: cda4 10bf 96a8 22bf 0971 2ebd 86d4 95bd
000002e0: 7fe6 babd fa9b 753e ca44 813e 5adb dc3d
000002f0: 7608 1d3d f7a2 513e fda8 7fbb e555 e3bd
00000300: f956 ad3c a89e 9dbe fe2c 6e3e dd6c 203e
00000310: 5ab8 7a3e a46f 903c ed33 f3bd 4c74 883e
00000320: 3e76 2ebe 2749 723e 93e1 eabc e542 e7be
00000330: 49db 13be d722 463e 9a04 a93d 105c 6abd
00000340: e444 e6bb bf64 70bd 40be 183c 9f68 9dba
00000350: 3bb1 663e 8a2d 15be 2e92 773e 996a 943e
00000360: 16b0 4b3b 83ad d23c 6f5e 173c 5186 2f3e
00000370: 47da 883e 1221 edbd c3d1 87bd 2f0b 88be
00000380: 1392 20be b769 2d3e 519c 5cbe 7e6e 083c
00000390: 4e1d 373e d7dd 623e e6ce b93d 0114 53bc
000003a0: 3cac 003e ac93 4b3c 76de 39be f088 1abb
000003b0: 310a 803e ce6a 61be 56de 243e 52fd 393e
000003c0: ce30 8c3e 4ed5 78be 67fb c43c 37c7 19be
000003d0: b3df 663c 005e 443d 9435 1d3e b4f6 9a3d
000003e0: 4c2e 3b3e ff55 853e ce9f ad3d 3af1 8dbd
000003f0: b54a 6fbd a3b6 703e 2fc7 f53d 2978 473e

act_conv1.bias f4 [4]
0.08206584 0.105693996 0.09525264 0.16013068
00000000: 2312 a83d 1876 d83d d113 c33d 4cf9 233e

act_fc1.weight f4 [36, 144]
0.004165136 0.013584417 0.040567037 0.023649253 0.03674149 0.013906928 -0.006741567 0.024777262
-0.007279768 0.031391315 -9.698072e-05 0.038302604 0.028164867 0.016465789 0.011641774 -0.02451625
-0.0039045087 -0.002288224 0.05002925 0.0029770022 -0.047889937 0.077405415 -0.016649237 0.026888316
0.036112446 0.0127522 0.023889733 0.0032289086 -0.023066359 -0.01542561 -0.48628718 -0.09702989
-0.0032699269 0.008649912 0.021307752 0.0060767015 0.05709129 0.00862198 0.0067455964 0.021020994
-0.012344191 0.0399834 0.0018553208 0.001688366 0.0069904663 0.0018149462 0.11347196 0.0024045873
0.053505715 0.053099383 0.0397942 0.055459987 0.0121521475 0.047127426 -0.013884968 0.054317765
0.09195153 -0.0022346864 0.042708136 0.018526562 0.094813034 0.032173786 0.051720724 0.017728211
0.0034468763 0.059106972 -0.45383364 0.0071579535 0.04629548 0.03586127 0.0032208473 0.044181846
0.0063265422 -0.010367327 -0.0467766 -0.01259414 -0.045590024 -0.05965187 0.008209772 -0.01825058
0.015202957 -0.054628775 0.027370067 -0.049727567 -0.04637367 -0.03507147 -0.04765966 0.05064554
-0.0127779525 -0.016274191 0.025391875 0.00028254784 -0.029857652 -0.069886275 0.010959526 -0.056222476
0.076907665 -0.027465183 -0.0045342837 0.044243548 0.0030109312 -0.014128312 -0.33788422 0.07111798
0.0862624 -0.0020365776 0.0015309283 0.009601614 -0.087600045 -0.048546396 -0.07091862 -0.048120163
0.019721169 -0.083870195 -0.13009077 -0.011994672 0.030198088 0.03574338 -0.11691776 -0.03820367
-0.08776391 0.06494097 0.030351447 -0.14855574 -0.001550268 0.01754922 -0.037775517 0.016400868
-0.11916578 0.014486508 0.046805307 -0.051881004 -0.067179985 -0.09496384 0.007984805 0.0890594
-0.012613291 -0.02949628 0.22882093 -0.06321694 0.011357089 -0.0885912 -0.07251275 -0.060812607
0.03759879 0.020379076 0.011082285 0.014615381 0.03818396 -0.009431636 0.00707364 0.0069207833
0.008841554 0.03948005 -0.019274658 0.0368149 0.0030000943 0.021898381 0.052051973 0.033869952
0.023467565 0.016167074 0.028553082 0.05755915 0.033249944 -0.0031213672 0.042587575 -0.0028763958
-0.053714592 0.047754273 0.05598536 0.0034078655 0.04883907 0.030776111 0.122303516 -0.37885037
-0.13156906 0.0021177288 0.05002198 0.027885014 0.0073306216 0.041519236 0.017478349 -0.009493894
-0.024633938 0.0009730865 0.004452029 0.01565415 0.0140558975 -0.025309782 0.026116045 0.05307952
-0.0035527358 0.005168697 -0.025872517 0.0013943751 0.061332908 -0.0069710948 0.022007903 -0.03385621
0.047933884 0.074298605 -0.02338205 0.02571081 -0.073963515 0.030206688 0.030899065 0.00512792
-0.014769213 -0.026822234 0.01847046 -0.4748499 0.0045706346 0.022205327 -0.006595512 0.0044209035
0.02798267 -0.024814101 -0.006120801 0.009202949 -0.013256707 -0.00085994846 0.03977074 -0.012830567
-0.0045884056 -0.008627206 0.009519727 0.062977985 0.076183476 -0.0442745 -0.0028824979 -0.023719337
0.036401633 0.047130093 -0.004184062 -0.04803982 0.009895128 0.010524296 0.030257875 0.058914717
0.1289124 0.038327437 -0.0030743072 0.07062809 0.052837357 0.071379334 -0.19415249 -0.36217016
0.12300081 0.010273533 0.009004448 -0.026948916 -0.030569224 -0.0616765 -0.017573988 -0.022901073
00000000: b17b 883b 2d91 5e3c 9f29 263d 14bc c13c
00000010: 3f7e 163d e2d9 633c 5de8 dcbb aff9 ca3c
00000020: 1f8b eebb 2e94 003d 2162 cbb8 31e3 1c3d
00000030: 02ba e63c 43e3 863c 24bd 3e3c 4dd6 c8bc
00000040: c9e2 7fbb 07f6 15bb 79eb 4c3d cf19 433b
00000050: 3d28 44bd bb86 9e3d fb63 88bc e344 dc3c
00000060: a5ea 133d 9aee 503c 67b4 c33c 199c 533b
00000070: a9f5 bcbc b3bb 7cbc a2fa f8be 9bb7 c6bd
00000080: 454c 56bb 5cb8 0d3c 988d ae3c 111f c73b
00000090: 8ed8 693d 3543 0d3c 2a0a dd3b 3834 ac3c
000000a0: 4a3f 4abc a2c5 233d 3c2e f33a 2a4c dd3a
000000b0: 4810 e53b 7de3 ed3a fd63 e83d 4896 1d3b
000000c0: cf28 5b3d bd7e 593d 3eff 223d 032a 633d
000000d0: cd19 473c b008 413d c77d 63bc 4e7c 5e3d
000000e0: 1551 bc3d d173 12bb baee 2e3d 04c5 973c
000000f0: 562d c23d a9c8 033d 1cd9 533d c13a 913c
00000100: fde4 613b 271a 723d e25c e8be 448d ea3b
00000110: 54a0 3d3d 44e3 123d da14 533b 06f8 343d
00000120: e24e cf3b b9db 29bc d298 3fbd a757 4ebc
00000130: 9bbc 3abd 8555 74bd 4882 063c 3e82 95bc
00000140: d315 793c 6cc2 5fbd 3137 e03c 22af 4bbd
00000150: 51f2 3dbd 1aa7 0fbd c736 43bd b371 4f3d
00000160: 9e5a 51bc 7451 85bc 9f02 d03c ee22 9439
00000170: 0998 f4bc 8920 8fbd 958f 333c 8a49 66bd
00000180: c481 9d3d aafe e0bc 5494 94bb b938 353d
00000190: 0b53 453b 6f7a 67bc 29ff acbe 4ea6 913d
000001a0: 57aa b03d 1a78 05bb 6ea9 c83a 1750 1d3c
000001b0: a767 b3bd 96d8 46bd c83d 91bd a619 45bd
000001c0: 4a8e a13c 23c4 abbd 8436 05be 4d85 44bc
000001d0: fb61 f73c a767 123d 9472 efbd 747b 1cbd
000001e0: 91bd b3bd c5ff 843d 99a3 f83c ff1e 18be
000001f0: 5d32 cbba 62c3 8f3c 80ba 1abd 1d5b 863c
00000200: 300d f4bd d258 6d3c ecb6 3f3d 2d81 54bd
00000210: a995 89bd 677c c2bd b3d2 023c c664 b63d
00000220: faa7 4ebc 2fa2 f1bc 0950 6a3e e277 81bd
00000230: 1513 3a3c 4e6f b5bd 9181 94bd a416 79bd
00000240: 3001 1a3d 05f2 a63c 7992 353c 5a75 6f3c
00000250: c966 1c3d 2687 1abc fec9 e73b bdc7 e23b
00000260: 2adc 103c d5b5 213d e3e5 9dbc 38cb 163d
00000270: 3b9d 443b 3c64 b33c 7334 553d 38bb 0a3d
00000280: 0d3f c03c d070 843c 27e8 e93c 25c3 6b3d
00000290: 1831 083d da8f 4cbb 4f70 2e3d ea81 3cbb
000002a0: d503 5cbd fc99 433d e850 653d 7f56 5f3b
000002b0: 7a0b 483d 2f1e fc3c 447a fa3d adf8 c1be
000002c0: 0aba 06be 98c9 0a3b d9e3 4c3d 1d6f e43c
000002d0: b635 f03b 1310 2a3d c12e 8f3c 478c 1bbc
000002e0: 1dcd c9bc bb16 7f3a 53e2 913b 223d 803c
000002f0: b54a 663c 7656 cfbc 51f1 d53c e969 593d
00000300: 04d5 68bb 2c5e a93b 9af2 d3bc 77c3 b63a
00000310: 3738 7b3d c86d e4bb eb49 b43c cfac 0abd
00000320: 5256 443d de29 983d b78b bfbc 7a9f d23c
00000330: 2f7a 97bd 0474 f73c 0920 fd3c 1c08 a83b
00000340: 92fa 71bc 4dba dbbc 5d4f 973c 871f f3be
00000350: 43c5 953b f2e7 b53c 2a1f d8bb 3add 903b
00000360: ea3b e53c f146 cbbc 0091 c8bb f7c7 163c
00000370: a932 59bc 2a6e 61ba a5e6 223d 4c37 52bc
00000380: 565a 96bb 2059 0dbc a1f8 1b3c 9afa 803d
00000390: 1506 9c3d 2e59 35bd 4ae8 3cbb 0e4f c2bc
000003a0: e119 153d 7c0b 413d 751a 89bb 67c5 44bd
000003b0: 2d1f 223c 196e 2c3c 5ddf f73c 8f50 713d
000003c0: 9d01 043e 3bfd 1c3d 517a 49bb 76a5 903d
000003d0: fc6b 583d 542f 923d e9cf 46be 5e6e b9be
000003e0: d9e7 fb3d 5252 283c 6487 133c f9c3 dcbc
000003f0: 4f6c fabc 7fa0 7cbd 53f7 8fbc 089b bbbc

act_fc1.bias f4 [36]
-0.02120369 -0.012463983 -0.013867509 -0.03379327 -0.013002455 -0.029832263 -0.010881891 0.05574282
0.018054798 0.030324541 0.071057804 -0.0043169083 -0.018415531 0.02494247 0.04313675 0.036514193
0.04126083 -0.019100688 -0.016290091 0.023535032 0.046493195 0.049851645 0.008282841 -0.022354078
0.00095785223 0.07189481 0.028742434 -0.0025697397 0.074958116 -0.028633099 -0.023483193 -0.0015141041
-0.024904182 -0.0007659513 0.010363132 -0.023864323
00000000: 5cb3 adbc bc35 4cbc 8c34 63bc d06a 0abd
00000010: 4008 55bc ca62 f4bc f549 32bc 9552 643d
00000020: a8e7 933c 2c6b f83c c186 913d da74 8dbb
00000030: 2bdc 96bc 2754 cc3c 29b0 303d e88f 153d
00000040: 1e01 293d 0c79 9cbc cc72 85bc 8acc c03c
00000050: a66f 3e3d 3d31 4c3d c1b4 073c e61f b7bc
00000060: 6018 7b3a 963d 933d 4175 eb3c 1469 28bb
00000070: a483 993d f68f eabc d35f c0bc e774 c6ba
00000080: db03 ccbc 1fca 48ba 20ca 293c 1d7f c3bc

val_conv1.weight f4 [2, 128, 1, 1]
0.027084572 -0.050999194 -0.031046445 0.048305187 -0.1870546 0.15936695 -0.03823974 -0.030529154
0.03404172 -0.14957221 -0.25541234 0.030992428 -0.29978567 0.22914216 -0.10260119 -0.0664659
-0.15191011 -0.06519368 0.058699124 0.023506796 0.14167576 0.008871463 0.06353946 -0.30927828
-0.03464154 -0.13121618 0.16791661 -0.12092209 0.2766452 -0.07567454 -0.13529749 0.31367272
0.19458611 -0.24861509 -0.11090613 0.22794172 -0.016151508 0.17311288 0.084209286 -0.041932642
0.06475368 0.09910798 -0.1031937 -0.034038175 0.11387374 -0.0036795519 -0.0772753 -0.04115591
-0.007231047 0.15699683 0.028721683 0.07705281 0.07446603 -0.042044155 -0.21084534 0.120195255
-0.16908349 -0.039000593 -0.039911237 0.11392964 -0.15034023 0.007208609 -0.21676973 -0.14225908
-0.118925475 -0.0054631694 0.030668171 -0.045124922 -0.060751878 -0.067122765 0.33784783 0.110633485
-0.1459284 0.005140893 0.040752962 0.08881719 0.036156185 -0.0032609117 -0.058287058 -0.3091161
0.055742536 0.06612833 0.20793235 -0.2202777 -0.036627058 -0.059495293 -0.066593744 -0.0033853115
0.28534055 -0.28915638 0.017900493 -0.06876128 -0.077332474 0.07460351 0.15810405 -0.05694357
0.12667726 -0.048498858 0.13969804 0.10080915 0.02277275 -0.13357265 0.22175522 0.026392294
0.12185854 0.07620026 0.02411279 0.22471271 0.043792214 0.079714015 -0.020038549 -0.023031486
0.05126481 -0.031510834 0.14100504 0.021567507 0.118029706 -0.045137584 0.026781091 -0.0041756555
-0.17214268 -0.0667998 0.000812923 -0.008352253 0.13708267 0.1309401 -0.041408505 -0.13172904
0.06791962 -0.007372269 -0.06665387 0.08732746 -0.2405716 -0.1872795 0.4047803 -0.093462124
-0.0075670294 -0.146327 0.039910737 0.10433246 -0.026876418 -0.10444249 -0.089316964 -0.08350089
0.19017915 0.033287607 -0.16023123 -0.06995438 0.07416709 -0.004215843 0.012487905 0.1536635
-0.08152186 -0.11269283 -0.032631855 0.084460214 -0.22691454 -0.06621721 -0.082264505 0.21988612
-0.29253092 -0.0340158 0.04408338 -0.07371559 0.07428328 0.07905716 -0.05483874 -0.16983305
0.079786584 -0.13135885 -0.082779385 -0.20388636 -0.009021436 -0.20670454 -0.23528455 -0.14864218
-0.004717756 -0.061907146 0.0032876567 0.27051693 0.09499747 0.050966647 -0.0719219 0.07871631
0.13607673 0.042448252 0.1229197 -0.16223198 0.16112787 0.01841546 -0.0092933765 0.12161489
0.042101547 -0.15203142 0.043901525 0.1375976 -0.13742699 -0.108115375 0.11203724 0.04186263
-0.15787868 0.035174914 0.094936855 0.108272 -0.25531122 0.01941726 -0.019681768 -0.08632911
0.050137047 0.09847351 0.313474 0.16155143 -0.13861535 0.10021029 0.13386902 0.00900081
0.14381626 0.10135658 0.1968031 0.11820967 0.11302143 0.01930114 -0.21726157 0.28647298
-0.000518479 0.06781835 -0.059584282 0.15200506 0.05108441 -0.053170647 0.09819774 0.054016996
-0.17583196 -0.17276473 -0.13130395 0.16484714 0.059342645 0.1573646 -0.062365003 -0.09038728
0.08893323 -0.1685847 0.28946567 0.10627237 -0.19006515 0.113059446 -0.013079234 -0.04296246
-0.30136475 0.11784714 -0.16828202 -0.18806097 0.24854223 0.10989996 0.100478984 -0.06382764
00000000: 77e0 dd3c 88e4 50bd 1d55 febc a9db 453d
00000010: 3e8b 3fbe 1731 233e 46a1 1cbd 4718 fabc
00000020: 556f 0b3d 7529 19be 68c5 82be d5e3 fd3c
00000030: 827d 99be 3ea4 6a3e 9320 d2bd 461f 88bd
00000040: 538e 1bbe 4484 85bd 7e6e 703d 5391 c03c
00000050: 7313 113e 9d59 113c fa20 823d b959 9ebe
00000060: 4ae4 0dbd 895d 06be 55f2 2b3e 00a6 f7bd
00000070: 71a4 8d3e 41fb 9abd 6d8b 0abe b699 a03e
00000080: 9541 473e f494 7ebe c122 e3bd 8e69 693e
00000090: 2b50 84bc 8144 313e eb75 ac3d 90c1 2bbd
000000a0: 949d 843d 20f9 ca3d 3857 d3bd 9d6b 0bbd
000000b0: a336 e93d a324 71bb 8342 9ebd 1993 28bd
000000c0: 6bf2 ecbb c7c3 203e bc49 eb3c ddcd 9d3d
000000d0: a581 983d 7e36 2cbd d7e7 57be ee28 f63d
000000e0: 3924 2dbe 16bf 1fbd f779 23bd f153 e93d
000000f0: caf2 19be 3236 ec3b e2f8 5dbe 5dac 11be
00000100: 338f f3bd 6304 b3bb d13b fb3c e9d4 38bd
00000110: f6d6 78bd a977 89bd 64fa ac3e cf93 e23d
00000120: 416e 15be f074 a83b 94ec 263d c9e5 b53d
00000130: 8218 143d 05b5 55bb 69be 6ebd 7744 9ebe
00000140: 4952 643d 4a6e 873d 38ec 543e 7a90 61be
00000150: 4106 16bd 56b1 73bd 4d62 88bd 1adc 5dbb
00000160: 2818 923e 4e0c 94be 0ea4 923c b7d2 8cbd
00000170: 7d60 9ebd bac9 983d 07e6 213e a93d 69bd
00000180: afb7 013e bda6 46bd 010d 0f3e 0775 ce3d
00000190: eb8d ba3c 45c7 08be cd13 633e a734 d83c
000001a0: f890 f93d e20e 9c3d 3088 c53c 171b 663e
000001b0: 775f 333d 1a41 a33d e227 a4bc 87ac bcbc
000001c0: 0dfb 513d 8111 01bd a063 103e 57ae b03c
000001d0: 8fb9 f13d 30e2 38bd 0564 db3c f0d3 88bb
000001e0: 2c46 30be 55ce 88bd 571a 553a e3d7 08bc
000001f0: 665f 0c3e 2915 063e f79b 29bd fae3 06be
00000200: 7119 8b3d 1393 f1bb d381 88bd bdd8 b23d
00000210: 6758 76be 32c6 3fbe 5d3f cf3e 1269 bfbd
00000220: d8f4 f7bb bfd6 15be 7179 233d 42ac d53d
00000230: ef2b dcbc f2e5 d5bd d0eb b6bd 8402 abbd
00000240: 53be 423e 9658 083d a813 24be 3e44 8fbd
00000250: eae4 973d 0e25 8abb 129a 4c3c f759 1d3e
00000260: eff4 a6bd 80cb e6bd fba8 05bd 7af9 ac3d
00000270: 495c 68be e39c 87bd 4b7a a8bd d429 613e
00000280: 9dc6 95be 2754 0bbd c690 343d 33f8 96bd
00000290: d521 983d b8e8 a13d 969e 60bd b7e8 2dbe
000002a0: 2667 a33d ef82 06be 3d88 a9bd 96c7 50be
000002b0: a5ce 13bc 5baa 53be 6fee 70be a835 18be
000002c0: 6897 9abb 5992 7dbd ba75 573b 3281 8a3e
000002d0: 098e c23d 67c2 503d ca4b 93bd 0436 a13d
000002e0: b357 0b3e 38de 2d3d 53bd fb3d 2420 26be
000002f0: b4fe 243e 05dc 963c 3f43 18bc 3a11 f93d
00000300: ac72 2c3d 20ae 1bbe 16d2 333d 63e6 0c3e
00000310: a9b9 0cbe 986b ddbd c873 e53d 2678 2b3d
00000320: f3aa 21be 9213 103d 416e c23d b6bd dd3d
00000330: 27b8 82be f210 9f3c a93b a1bc 51cd b0bd
00000340: 815c 4d3d 7bac c93d aa7f a03e bd6d 253e
00000350: 2ff1 0dbe 0d3b cd3d f614 093e 2278 133c
00000360: 9244 133e 0a94 cf3d c086 493e e917 f23d
00000370: c877 e73d 6d1d 9e3c d179 5ebe 96ac 923e
00000380: 89ea 07ba 59e4 8a3d a60e 74bd 37a7 1b3e
00000390: e33d 513d 77c9 59bd e61b c93d ed40 5d3d
000003a0: 4b0d 34be 3de9 30be 8b74 06be b0cd 283e
000003b0: 4611 733d 3024 213e 7272 7fbd f71c b9bd
000003c0: a022 b63d 78a1 2cbe d834 943e 54a5 d93d
000003d0: 70a0 42be b68b e73d 494a 56bc 68f9 2fbd
000003e0: 7b4c 9abe d759 f13d 1f52 2cbe 0e93 40be
000003f0: db81 7e3e 3b13 e13d edc7 cd3d 11b8 82bd

val_conv1.bias f4 [2]
0.019600622 0.11071056
00000000: 7c91 a03c 38bc e23d
