99.model (torch, 530034 bytes, 15 tensors)

conv1.weight f4 [32, 4, 3, 3]
000000 34 47 45 3e 00 c2 89 3e 91 56 da 3d ac 56 9f 3e
       0.19265443 0.26905823 0.106610425 0.31120813
000010 e8 40 37 3d 6d 0a c8 3e 1b 70 57 3e c8 9a 2c 3e
       0.044739634 0.39070454 0.21038859 0.1685592
000020 ba 73 2d 3e 27 f9 17 3d 4c d8 3b 3d b6 c1 4f 3e
       0.16938677 0.037102845 0.045860574 0.20288739
000030 d8 ed e0 bd 88 e1 5b be 75 1a 40 bd a8 5f 2a bd
       -0.10982865 -0.21472752 -0.04690023 -0.04159513
000040 7c 16 3e 3c 4c 20 a2 3d 3d 2f 45 3d 61 92 a2 bc
       0.01160204 0.079163164 0.048140753 -0.01984519
000050 8c ca 1c bd 61 0b 9b 3c f5 27 35 3e e3 f7 2e bd
       -0.0382791 0.018926324 0.17691024 -0.042716872
000060 b1 b3 e7 3c c8 be c5 3c e7 51 1a 3d 95 3d 1a bc
       0.028283926 0.024138823 0.037675764 -0.009414096
000070 80 f2 1e bd 88 82 ae bc 6b 09 a6 bc d9 e3 ab bd
       -0.038805485 -0.021302477 -0.020268163 -0.08393068
000080 d7 fd 5c bd bc 8b c1 3b 99 13 91 bc 10 8a 82 bd
       -0.053953018 0.00590655 -0.01770954 -0.063739896
000090 9e d9 f3 bd 56 9b 7d be 0b 87 34 3e c6 29 d2 bc
       -0.119067416 -0.24766287 0.1762964 -0.025654685
0000a0 26 01 33 3e 70 53 4b 3e 8f 1b 72 be 44 55 64 3e
       0.17480907 0.19856048 -0.23643325 0.22298151
0000b0 a1 85 d8 3d 21 1d 5b 3c 07 b6 6c 3e 14 e7 ac 3c
       0.10572363 0.013373644 0.23116313 0.02110628
0000c0 49 1e 37 be 2f d1 ae bd 01 85 cc bc 4a f3 0c bd
       -0.17882647 -0.08535992 -0.024965765 -0.034411706
0000d0 99 11 b4 bd 1a 78 10 be 4e 33 18 be 98 1c 8f bd
       -0.08792419 -0.14108315 -0.14863321 -0.06987876
0000e0 cc 4c 23 bd b2 cf e4 3c 2a 6a eb bd c0 37 83 bd
       -0.03986816 0.027931068 -0.114948586 -0.06407118
0000f0 a3 34 c3 3d 33 23 46 3d b7 b5 31 bd 30 84 85 bd
       0.09531524 0.048373412 -0.043386187 -0.065193534
000100 46 97 8b 3c be a6 bc bc ad 51 11 3e 26 fc 3a 3e
       0.017039906 -0.023028728 0.14191313 0.1826025
000110 f6 c1 9b 3b bc f6 c9 3d 22 e0 85 3d f0 39 a2 38
       0.0047533466 0.09861514 0.065368906 7.735554e-05
000120 02 f0 cd 3d 4f 1e a3 3e 17 5d 07 bd 38 a4 c5 3e
       0.100555435 0.3185906 -0.03304776 0.3860185
000130 77 0e ac bc 7f 43 e5 3d a4 5b 5c bc 61 60 68 3e
       -0.021002991 0.111945145 -0.013449583 0.22693016
000140 a4 5b 78 3e 61 78 a0 bd cb 66 3f be 5a d8 d0 3d
       0.24253708 -0.078354605 -0.18691556 0.10197516
000150 1d 08 39 be 71 26 72 be 28 dd 04 be fd 9f ff bb
       -0.18069501 -0.23647477 -0.1297499 -0.0078010545
000160 f6 e2 5d be 41 c8 e8 bd 4e 6d 93 bb 87 6c ec 3c
       -0.2166861 -0.113663204 -0.004499114 0.028860344
000170 3e d1 f4 bc c4 bc 6c 3d 66 22 88 3c e4 1b 67 3c
       -0.02988493 0.05779721 0.016617965 0.014105771
000180 eb a1 cd 3c 31 7d 2c bd 6b 98 94 bd 4a 86 b7 3c
       0.025101623 -0.04211158 -0.07255634 0.022402901
000190 79 77 55 3c d0 79 6a 3c 3b 39 59 3d 0a 07 87 3c
       0.013028973 0.014311269 0.053033095 0.016482849
0001a0 21 c8 a6 3d 76 1d a3 bd 7b 51 a0 bd 44 0f 46 3c
       0.0814364 -0.079646036 -0.07828041 0.012088601
0001b0 88 85 cf 3d 3a 24 5c 3e 09 ff 7e bc 64 43 5b be
       0.10132891 0.21498194 -0.015563735 -0.21412426
0001c0 81 b4 32 3d b7 82 42 be 8e 88 ed bc 23 f7 73 be
       0.043629173 -0.18995176 -0.028995778 -0.23824744
0001d0 d0 d5 e5 3b f3 70 12 3e cc 7b 61 3e 6a e7 24 3e
       0.007014014 0.14300899 0.22019881 0.16103902
0001e0 e0 af 26 3d 5b e8 2f 3e 18 17 a4 3e 31 6d f4 3d
       0.04069507 0.1717848 0.3204887 0.11934889
0001f0 f2 12 1d be 77 f1 8e 3e 2d c9 2a bd 40 3d 13 3d
       -0.15339258 0.27918598 -0.041695762 0.035947084
000200 69 3b 29 bb 4c 3b 9d bc 4f d6 ae 3c a3 92 86 3b
       -0.0025822765 -0.019193314 0.021342425 0.004106836
000210 71 b9 e0 bb 9a b4 e7 3c 30 1b 73 3c 07 70 2d 3e
       -0.006858044 0.02828436 0.014838025 0.16937266
000220 b6 79 73 bd a5 61 fe 3d a1 f8 98 3c 33 f1 0f 3d
       -0.059442244 0.12420968 0.018673243 0.035142135
000230 07 92 d8 3d 46 33 b4 3c 5f db 92 3d 73 56 95 3c
       0.105747275 0.021997105 0.07170748 0.018229699
000240 56 a2 94 3d 7f de bd bc bd c2 c5 bd 37 fe 12 bd
       0.072575256 -0.023177383 -0.09656284 -0.03588697
000250 96 4f 5a be 98 12 93 bd bf f7 24 be 60 b6 2b 3c
       -0.21319422 -0.07181281 -0.16110133 0.010480493
000260 63 98 00 be 39 43 26 be 69 f7 1e be c3 3d 2e be
       -0.12558131 -0.16236581 -0.15524067 -0.17015748
000270 b7 f8 9b 3e 9a fe 0d bd 8f 74 82 3b 34 d2 60 3e
       0.30463192 -0.034666635 0.00398118 0.21955186
000280 72 6f 87 bd 58 24 60 3e e7 57 68 3d e2 20 25 bc
       -0.066130534 0.21888864 0.056724455 -0.010078641
000290 d7 9a 88 bd c4 0e da bd e2 9f c5 bb 38 55 ea 3c
       -0.06670158 -0.106473476 -0.0060310224 0.028605089
0002a0 10 85 19 bd 36 1a bb bd b9 ec 51 bd 46 82 03 be
       -0.037480414 -0.09135859 -0.051251147 -0.12842664
0002b0 76 48 62 3d 22 8e 5e 3d 0e de c5 3d 4a 48 a2 3d
       0.055244885 0.054334767 0.09661494 0.07923944
0002c0 21 be de 3d 76 a6 70 bc 42 73 20 3d 47 f7 c1 bc
       0.10876108 -0.014688125 0.03917242 -0.023677481
0002d0 bb 0c 32 3b fc 02 20 3b 9d 21 b4 3e 4a c3 d4 3e
       0.0027168232 0.0024415841 0.35181895 0.41555244
0002e0 50 cf e4 bd 7e 60 75 3e 42 5b d4 3d fc af 0a 3d
       -0.11172354 0.2396259 0.103689685 0.033859238
0002f0 2b f2 85 bc 4c e7 d4 3d d5 03 80 3e 50 9b c0 3e
       -0.016350826 0.10395679 0.25002924 0.37618494
000300 ed 65 3e 3e c6 85 e2 3d 19 76 fa 3d 00 01 0c bd
       0.18593569 0.110606715 0.122295566 -0.03418064
000310 1d fc 73 bd 13 31 a0 bc 88 9d d1 bc 6f 02 02 bd
       -0.059566606 -0.01955465 -0.025587812 -0.031740602
000320 6c f3 91 bc d4 03 45 3d 53 19 64 bd 60 b3 d8 ba
       -0.017816268 0.048099354 -0.055688214 -0.001653295
000330 58 b0 cb 3c 37 7c 95 bb 5f b7 7d bb d4 21 a9 bd
       0.02486436 -0.0045619267 -0.0038714034 -0.08258405
000340 f1 77 5e 3c a1 f7 3f 3e 73 47 81 bd 37 00 12 bd
       0.013578401 0.18746807 -0.06312456 -0.035644736
000350 4a 49 09 3e 48 86 e5 bd 06 46 9d bd d2 bd 26 3e
       0.13406864 -0.11207253 -0.076793715 0.16283348
000360 09 59 ef 3e 98 ab 10 be e7 43 2d be 49 1b 82 3e
       0.46747616 -0.14127958 -0.16920434 0.25411442
000370 f1 1c c6 3d 97 90 b5 3d 31 d5 ae 3e 0b cb 3d be
       0.09673489 0.08865469 0.34147027 -0.18534486
000380 c5 28 e1 3d 9e 0d f6 bd 9d c0 ba bd 1b 2a 97 3d
       0.10994104 -0.12014316 -0.09118769 0.07381078
000390 66 21 98 3d 80 53 bd 3c 93 8a 09 bd 9d 95 db be
       0.07428245 0.023111105 -0.03357942 -0.42887583
0003a0 66 77 a5 3e c2 2c 58 3d ae 53 11 3a 38 e1 19 3c
       0.32317656 0.05277706 0.000554378 0.009392075
0003b0 91 8d 38 bd ca 34 de bd 78 12 6f 3d 3f 8c 69 bd
       -0.045056883 -0.108499125 0.058367223 -0.057018515
0003c0 82 77 5b 3d c2 aa f6 bc 20 c5 44 bd bf 3e df bd
       0.05358077 -0.03011072 -0.048039556 -0.1090064
0003d0 9b 0f 29 3d 7d c3 dd bd 14 bf b0 3d f0 f6 19 be
       0.04127465 -0.10828302 0.08630195 -0.15035605
0003e0 c6 4b 32 bd 3c 15 fe 3c 0c 3d 85 3d 37 3a c6 3c
       -0.043529294 0.031015985 0.065057844 0.02419768
0003f0 13 32 1d 3e 0b 59 ef 3e 1c a4 68 3e 76 95 85 3e
       0.15351133 0.46747622 0.22718853 0.26090592

conv1.bias f4 [32]
000000 c9 25 d1 bd 94 c9 aa bd c9 06 90 3d fe 01 05 be
       -0.10212285 -0.08339229 0.07032544 -0.12989041
000010 41 fc b1 bc f1 f1 f5 bd 20 30 5c 3c 17 75 9a bd
       -0.02172673 -0.12009037 0.013439208 -0.07541864
000020 d4 6c ac bd a0 d3 ee bc 11 f3 23 bd c5 9e 34 3e
       -0.08419195 -0.029153645 -0.040026728 0.17638691
000030 76 ac 84 bc 07 09 cc 3c 44 14 eb bd f4 b5 c2 bd
       -0.016195517 0.024906648 -0.11478475 -0.09507361
000040 a3 01 61 be 94 1b 5a bd 6b 62 00 3e ef 22 d1 3d
       -0.2197328 -0.053248957 0.12537543 0.10211741
000050 c3 34 c2 ba b5 61 99 a0 3c ca 40 3e 82 f5 1e 3e
       -0.001481675 -2.5983865e-19 0.18827146 0.15523341
000060 c3 7f 97 bc 90 ca d6 bc 6b 75 fd 3d 1b 5a b8 bd
       -0.018493539 -0.026219636 0.12375911 -0.09001561
000070 ad 44 41 3c 4e 2e fe bc 3f 6a 10 be ea 70 3d be
       0.011796159 -0.03102794 -0.1410303 -0.18500105

conv2.weight f4 [64, 32, 3, 3]
000000 6e 76 06 00 5b e2 04 00 dd b5 08 00 7b bc 09 80
       5.93498e-40 4.48543e-40 7.99924e-40 -8.94134e-40
000010 73 f9 03 80 24 96 05 00 8c 9e 03 00 f3 3a 01 00
       -3.64992e-40 5.13038e-40 3.32382e-40 1.12982e-40
000020 e7 66 04 00 5e cc 01 80 f4 c3 07 80 00 ef 06 80
       4.04256e-40 -1.65149e-40 -7.13143e-40 -6.3675e-40
000030 75 7a 0a 80 7d 28 0c 00 b9 37 0c 80 a3 b4 07 00
       -9.62284e-40 1.11655e-39 -1.122015e-39 7.07649e-40
000040 31 9e 0b 80 96 d7 07 80 58 3d 0c 80 d1 a0 04 80
       -1.066939e-39 -7.20186e-40 -1.124032e-39 -4.25032e-40
000050 ed 3b 04 80 02 1f 04 80 37 ff 00 80 57 78 05 00
       -3.8884e-40 -3.78465e-40 -9.1554e-41 5.02347e-40
000060 7e a9 05 80 a2 eb 03 00 11 d0 07 00 96 77 03 80
       -5.1998e-40 3.60036e-40 7.17489e-40 -3.18406e-40
000070 38 7a 0b 00 e7 cd 08 80 72 27 03 00 fe 81 0a 00
       1.054034e-39 -8.08548e-40 2.89657e-40 9.64987e-40
000080 76 57 03 80 8d 79 07 00 9b 73 02 00 75 78 01 80
       -3.06882e-40 6.86453e-40 2.25142e-40 -1.35047e-40
000090 4f 0d b9 24 eb 0c 52 a5 45 0b 43 a0 62 a4 50 a6
       8.0253506e-17 -1.8218973e-16 -1.6520871e-19 -7.2387277e-16
0000a0 7a f0 b2 a6 38 23 2d a0 88 f8 3c 25 48 06 74 a5
       -1.2416412e-15 -1.4665323e-19 1.6390606e-16 -2.1165755e-16
0000b0 a8 f4 f8 1e 52 16 03 00 da f6 00 80 96 47 02 80
       2.6359209e-20 2.83514e-40 -8.8554e-41 -2.09351e-40
0000c0 29 c3 0b 80 13 9a 0c 80 9e eb 01 00 36 3a 01 80
       -1.080201e-39 -1.157297e-39 1.76359e-40 -1.12718e-40
0000d0 a5 c3 09 80 e1 b1 07 80 5b f3 06 80 08 cc 05 80
       -8.96703e-40 -7.0666e-40 -6.38312e-40 -5.3237e-40
0000e0 70 8b 01 00 eb ea 00 80 cc 41 05 80 77 39 04 80
       1.41856e-40 -8.4273e-41 -4.82781e-40 -3.87956e-40
0000f0 97 d8 0a 80 31 77 03 80 de 2a 00 00 f0 f1 07 00
       -9.96053e-40 -3.18264e-40 1.5378e-41 7.29639e-40
000100 43 44 02 80 89 d1 05 80 77 05 03 80 8d 68 0c 00
       -2.08159e-40 -5.34345e-40 -2.77467e-40 1.139532e-39
000110 9e d1 07 80 6a ef 08 00 d3 dc 00 80 8f 4d 04 00
       -7.18045e-40 8.2057e-40 -7.9217e-41 3.95165e-40
000120 40 93 09 80 cb 2e 08 00 93 e3 06 80 27 4f 01 80
       -8.79343e-40 7.5147e-40 -6.32651e-40 -1.2023e-40
000130 d8 02 0a 00 c9 c0 08 00 3a bc 04 80 46 3d 04 00
       9.19375e-40 8.03842e-40 -4.34865e-40 3.89323e-40
000140 9b c2 00 80 65 a3 07 80 1d fd 07 00 98 8e 09 80
       -6.9811e-41 -7.01463e-40 7.33648e-40 -8.77672e-40
000150 93 fd 03 80 54 2e 08 00 d1 88 0b 80 d1 89 06 00
       -3.66472e-40 7.51303e-40 -1.059271e-39 6.00452e-40
000160 6b 17 06 80 2f 1f 07 00 c8 9a 0c 00 c4 48 04 00
       -5.59414e-40 6.54035e-40 1.157551e-39 3.93445e-40
000170 2a d2 01 00 1e 33 0b 00 12 ca 03 80 d8 1a 0b 00
       1.67228e-40 1.028528e-39 -3.47996e-40 1.01982e-39
000180 3f 87 07 00 49 4d 05 00 2b c4 02 80 b8 88 08 00
       6.91366e-40 4.86902e-40 -2.54043e-40 7.8373e-40
000190 14 d7 09 00 10 03 00 00 76 a6 00 00 8a 92 00 80
       9.03675e-40 1.099e-42 5.9715e-41 -5.2568e-41
0001a0 c5 af 05 80 0a 47 00 00 a6 9d 07 00 bd d1 0c 80
       -5.22232e-40 2.5484e-41 6.99402e-40 -1.177266e-39
0001b0 ac 9c 04 80 f8 f8 08 00 7d 41 06 00 9d 4d 03 00
       -4.23545e-40 8.23997e-40 5.74506e-40 3.03349e-40
0001c0 61 c3 03 00 e5 b2 04 00 6d 99 00 00 0f 5d 07 80
       3.45595e-40 4.31517e-40 5.5039e-41 -6.76232e-40
0001d0 1e 03 04 80 0e a7 2d 11 7a 52 8f 0e 81 cd 48 07
       -3.6846e-40 1.3698771e-28 3.5331644e-30 1.510672e-34
0001e0 d1 65 76 10 71 39 56 11 fd 7c e2 0e 5a a8 22 13
       4.8593382e-29 1.6899324e-28 5.583366e-30 2.0530278e-27
0001f0 2c 84 e7 92 37 e2 04 8f 9c 83 02 80 c1 af 01 00
       -1.4610732e-27 -6.55167e-30 -2.30884e-40 1.54884e-40
000200 8d c5 08 80 25 1a 08 80 70 df 05 80 04 38 00 00
       -8.05552e-40 -7.44063e-40 -5.39332e-40 2.0095e-41
000210 44 7a 03 80 da 99 0b 00 36 91 02 00 2d 05 0e 00
       -3.19367e-40 1.065382e-39 2.35763e-40 1.287554e-39
000220 86 7f 0d 00 f7 71 0d 00 50 ee 04 80 ce d3 00 00
       1.239608e-39 1.234744e-39 -4.52832e-40 7.5981e-41
000230 26 c5 01 80 89 99 09 80 d5 3f 0e 00 f0 a7 04 00
       -1.62559e-40 -8.81598e-40 1.308596e-39 4.27587e-40
000240 1d 20 68 06 0d 44 cd 02 27 2f 0c 80 f6 eb be 8c
       4.3657943e-35 3.0161102e-37 -1.118941e-39 -2.941615e-31
000250 3f a7 b7 05 ec 2b 0c 80 b6 e1 19 0d dd 39 da 09
       1.7270674e-35 -1.117782e-39 4.7418455e-31 5.2536005e-33
000260 74 1f 08 00 bf b3 14 91 86 ec 71 17 36 11 a6 8e
       7.45967e-40 -1.173053e-28 7.8169834e-25 -4.0938733e-30
000270 ac aa 0c 96 a8 34 b6 97 4f b3 de 0d 2a c5 13 99
       -1.1362964e-25 -1.1774767e-24 1.3724973e-30 -7.639539e-24
000280 d3 3c 0e 19 47 d9 9d 11 2f 4b 0c 00 a8 7a 0c 80
       7.353511e-24 2.490414e-28 1.128997e-39 -1.146027e-39
000290 c8 b6 0c 80 d1 3c 0d 80 a6 43 0c 00 05 5b 09 00
       -1.167596e-39 -1.215678e-39 1.126294e-39 8.59171e-40
0002a0 c6 00 0c 80 61 e4 0c 80 0b 02 01 00 92 41 0c 80
       -1.102303e-39 -1.183953e-39 9.2568e-41 -1.125548e-39
0002b0 5f d8 08 80 75 23 07 80 77 df 04 80 69 43 04 00
       -8.12303e-40 -6.55568e-40 -4.47506e-40 3.91524e-40
0002c0 0d dc 04 00 c6 4c 04 80 3e b3 0a 80 c6 0f 0a 00
       4.46281e-40 -3.94883e-40 -9.82655e-40 9.24013e-40
0002d0 cc e5 e6 0b d6 df 10 0b b6 7c ec 05 5e a7 8f 11
       8.893854e-32 2.7901787e-32 2.2239145e-35 2.266457e-28
0002e0 81 fa 45 93 55 5e bc 85 21 7b 71 94 f9 3b 98 93
       -2.4988404e-27 -1.7714087e-35 -1.21916735e-26 -3.8429332e-27
0002f0 70 d8 a4 10 82 ae 0a 00 f6 d0 00 00 1c 56 0b 80
       6.502007e-29 9.80957e-40 7.4961e-41 -1.04108e-39
000300 10 a7 09 00 12 ab 07 80 47 ef 0b 00 2a 28 01 80
       8.8645e-40 -7.04217e-40 1.096027e-39 -1.06244e-40
000310 9e e8 01 80 46 15 07 80 65 18 01 00 e8 43 0f 00
       -1.75283e-40 -6.5048e-40 1.00587e-40 1.401893e-39
000320 de 33 13 80 82 25 0f 80 11 29 00 80 66 92 0e 80
       -1.763481e-39 -1.390988e-39 -1.4732e-41 -1.338215e-39
000330 6a eb 0c 80 c6 89 03 00 3e 36 0f 00 bc 48 50 86
       -1.186477e-39 3.2493e-40 1.396991e-39 -3.917389e-35
000340 5e 69 f5 08 e7 51 26 05 13 cd 85 0d dc 3a 8e 8f
       1.4770173e-33 7.8203256e-36 8.246128e-31 -1.4024953e-29
000350 06 05 6e 0a 55 48 5b 0d 45 96 7c 11 65 3b 96 0e
       1.1460228e-32 6.757165e-31 1.99256e-28 3.703505e-30
000360 1a 5d 09 00 ab 02 07 00 74 26 03 80 b1 fa 06 80
       8.59918e-40 6.43806e-40 -2.89301e-40 -6.40944e-40
000370 24 3b 02 00 63 37 03 80 bd 66 00 00 5f 59 0b 80
       2.04887e-40 -2.95375e-40 3.6856e-41 -1.042251e-39
000380 42 6c 05 80 33 7b 01 00 3c f2 00 00 d0 dd 08 00
       -4.98013e-40 1.36031e-40 8.6897e-41 8.14255e-40
000390 2b 46 03 80 df 6e 06 80 28 eb 06 00 a3 51 0a 80
       -3.00678e-40 -5.90786e-40 6.35371e-40 -9.4764e-40
0003a0 20 2c 03 80 17 a9 06 80 f5 02 0f 00 c6 a4 0c 80
       -2.91336e-40 -6.11671e-40 1.378593e-39 -1.161136e-39
0003b0 dc 73 03 80 6d 20 0c 00 14 b5 00 00 06 47 05 80
       -3.17069e-40 1.113658e-39 6.4959e-41 -4.84656e-40
0003c0 14 01 0e 00 09 10 0f 00 49 8f 06 80 93 84 04 00
       1.286084e-39 1.383285e-39 -6.02414e-40 4.149e-40
0003d0 5f 13 03 00 87 e8 03 00 73 df 03 00 5f 6f 05 00
       2.82456e-40 3.58922e-40 3.55665e-40 4.9913e-40
0003e0 35 91 09 80 d6 3b 0b 80 51 8d 03 80 50 4b 06 00
       -8.7861e-40 -1.031656e-39 -3.26201e-40 5.7803e-40
0003f0 e6 91 0b 00 90 aa 05 80 69 5b 00 00 47 91 0a 00
       1.062529e-39 -5.20364e-40 3.2792e-41 9.7047e-40

conv2.bias f4 [64]
000000 dd 35 3d af 4f c9 c4 bd d9 5d cd bd 3d c9 bf b5
       -1.7208586e-10 -0.09608709 -0.10027666 -1.4289177e-06
000010 ee 79 ad b1 da 38 bf bd 21 2f 34 bd 94 c3 22 3d
       -5.0488245e-09 -0.093370155 -0.043990258 0.0397373
000020 e4 04 99 bb 93 60 8a 3d 2e d9 5a b7 34 fd 96 b1
       -0.0046697725 0.06756701 -1.3044379e-05 -4.3943604e-09
000030 57 85 86 3d bc 96 b6 b6 23 7a b8 bd 94 7c df bd
       0.06568401 -5.4415705e-06 -0.09007671 -0.10912433
000040 01 6a 91 b0 15 df 28 3e 90 21 b1 3b 8f fb 8b 3d
       -1.0580267e-09 0.16491349 0.0054056123 0.0683509
000050 d5 e1 9f bb 18 96 5c 3b 15 41 c6 bc c3 10 6e bd
       -0.004879216 0.0033658799 -0.024200955 -0.058121454
000060 08 e5 b3 3c 3b f8 48 b9 08 e7 94 bd b6 ba 3b bb
       0.021959797 -0.0001916596 -0.07270628 -0.0028645224
000070 51 91 29 3b be f2 5d bc 19 e9 a5 bb b4 aa 9a bb
       0.002587397 -0.013546644 -0.005063188 -0.0047200564
000080 f1 99 a6 bd a3 fa f0 b6 a6 85 0e b5 85 02 95 a5
       -0.08134831 -7.1817353e-06 -5.3093606e-07 -2.5849087e-16
000090 a9 ba e9 bb 3e c4 b2 bd 6d d0 d0 bd 48 11 69 bd
       -0.0071328473 -0.087288365 -0.10196004 -0.056901246
0000a0 1f c3 42 bd 7b d7 51 bd 0b 0d 12 bd 77 96 02 3d
       -0.047549363 -0.05123089 -0.03565697 0.031881776
0000b0 b7 1b 8f bd bc b4 b2 3d e0 59 45 bd 66 bb 68 bd
       -0.06987708 0.087258786 -0.048181415 -0.056819342
0000c0 14 2e 67 bb 2f af ef bb 2c 74 a2 b2 62 4d 28 b4
       -0.0035275267 -0.0073145847 -1.8912111e-08 -1.5674371e-07
0000d0 bb 97 18 3d ea 74 87 bd a3 a4 49 b5 60 48 a2 bc
       0.037254076 -0.066140965 -7.5117913e-07 -0.019809902
0000e0 cf 25 d5 bd 5c 5c a4 9f 19 67 8e bc ee 72 c5 ba
       -0.10407602 -6.96095e-20 -0.017383145 -0.0015064159
0000f0 43 19 c3 ab ff 29 f3 3d 11 78 61 3c 2e 24 e2 b5
       -1.3862595e-12 0.118732445 0.013761536 -1.6848842e-06

conv3.weight f4 [128, 64, 3, 3]
000000 0f e5 0b 80 60 b6 05 80 1f 99 0b 80 a2 ea 05 80
       -1.092361e-39 -5.24601e-40 -1.06512e-39 -5.43348e-40
000010 9d 66 0b 00 1e ee 04 80 28 2b 0b 80 df eb 05 00
       1.047001e-39 -4.52762e-40 -1.025672e-39 5.43792e-40
000020 25 cb 0f 80 40 a5 90 bc b3 47 3a 3b 10 0f 8c 3d
       -1.450407e-39 -0.017656922 0.0028424084 0.068388104
000030 15 42 4b bb 50 a6 2b bc a2 a9 08 3d 6f e8 11 bb
       -0.003101473 -0.010476664 0.0333649 -0.0022263785
000040 bb 90 41 3c 94 d9 91 bb b7 cc 16 3d 05 b7 98 3d
       0.011814292 -0.004450986 0.036816325 0.07456783
000050 b5 a9 65 3d 76 5e b5 bd 77 36 ca bc 42 ea 22 bb
       0.05607005 -0.088559076 -0.024684174 -0.0024858867
000060 92 b8 05 bd ae 18 06 bc e9 cd 02 3e a4 0a 0f 80
       -0.032646723 -0.008184595 0.12773861 -1.38135e-39
000070 d2 65 02 00 2b 25 02 80 fa f2 0e 00 0f 07 0e 00
       2.20197e-40 -1.97004e-40 1.37286e-39 1.288229e-39
000080 22 09 03 80 b3 76 07 80 93 0c 02 80 25 9c 00 00
       -2.78783e-40 -6.8543e-40 -1.88182e-40 5.6014e-41
000090 52 17 0d 80 02 07 06 00 7b 0c 03 00 23 45 0b 00
       -1.202227e-39 5.53527e-40 2.79984e-40 1.034992e-39
0000a0 4b 02 0d 80 3c 1a 0b 80 e3 d9 03 00 50 8c 0b 80
       -1.194684e-39 -1.019602e-39 3.5367e-40 -1.060525e-39
0000b0 fc 6f 0e 80 6a 77 22 bd 38 f9 5d bd 9c 7c 80 bd
       -1.32587e-39 -0.039664663 -0.05419275 -0.06273767
0000c0 ca 3e 13 bd f5 1d b0 ba 8f 84 be 3d de 66 37 bd
       -0.035948552 -0.0013436662 0.09302627 -0.044775836
0000d0 c3 ac f5 3c 05 9c 0a 3e 56 51 68 bc 94 fe a0 3d
       0.029989606 0.13536079 -0.014179548 0.07861057
0000e0 78 89 04 bd 3c e3 b6 3b 3d 8f 37 bd cd e0 88 3c
       -0.032357663 0.0055812877 -0.044814337 0.016708756
0000f0 79 ae 33 bd ee 65 42 3c d7 a1 93 bd fe 02 c9 bd
       -0.043867562 0.011865122 -0.07208603 -0.09815024
000100 42 44 08 bd 46 42 47 bd 0d 02 ba bd de 9f b1 bb
       -0.03326822 -0.048647188 -0.090824224 -0.005420669
000110 1d 61 b5 3d 90 d0 b8 bc 94 99 a7 3d 01 66 03 3e
       0.088564135 -0.022560388 0.081835896 0.1283188
000120 0a 29 01 80 13 95 06 80 19 56 05 00 49 44 05 80
       -1.06558e-40 -6.04491e-40 4.90064e-40 -4.83674e-40
000130 b8 ed 0d 80 b2 bc 0f 80 14 5a 03 80 4f c4 0d 80
       -1.279139e-39 -1.445224e-39 -3.0782e-40 -1.264284e-39
000140 58 c3 05 00 33 65 4e bc 11 a8 fb bb 3b 84 94 3d
       5.29254e-40 -0.01259737 -0.007679947 0.072517835
000150 12 8f 44 bd b6 6e 7e 3d d7 ce 13 3d a0 a4 84 bc
       -0.047988005 0.0621173 0.03608593 -0.01619178
000160 00 91 9e 3d d3 5a a0 3d 59 63 a6 83 22 09 0b 00
       0.077425 0.07829823 -9.779412e-37 1.013467e-39
000170 58 fe 0a 80 ed 39 e3 8b 78 cc 4b 01 58 e8 0b 80
       -1.009596e-39 -8.7524377e-32 3.743191e-38 -1.09354e-39
000180 42 a0 56 82 a0 5c 01 80 65 ba 0d 80 f3 05 00 80
       -1.5768229e-37 -1.25063e-40 -1.260727e-39 -2.134e-42
000190 d0 74 06 00 53 fe 09 80 58 f3 0a 00 55 05 05 00
       5.92917e-40 -9.17754e-40 1.00565e-39 4.6109e-40
0001a0 24 05 01 00 56 a0 05 00 cc 90 02 80 16 9f 01 00
       9.368e-41 5.16695e-40 -2.35614e-40 1.48905e-40
0001b0 3e 31 0c bc 29 08 58 bd 51 7c 2a 3b 8b 56 10 bd
       -0.008556662 -0.052742157 0.002601404 -0.035238784
0001c0 9b b9 08 bc 0c ad 88 bc 7e 3d 47 bb 32 fc 8b 3d
       -0.008345033 -0.016684078 -0.0030401642 0.06835212
0001d0 1f 9b 12 3d 9d f7 0c 00 ff 59 03 80 8f 30 02 80
       0.035792466 1.190853e-39 -3.07791e-40 -2.0109e-40
0001e0 d5 78 02 80 27 1a 0b 00 b1 4a 01 00 17 58 0d 80
       -2.27017e-40 1.019572e-39 1.1863e-40 -1.225462e-39
0001f0 4e 06 10 80 78 a4 0d 00 7f 8a 8c 3d 67 c6 1b 3d
       -1.47163e-39 1.252862e-39 0.068623535 0.038031008
000200 0c 65 39 bb 08 a7 9d 3c c2 d2 90 3c 26 dc 10 bc
       -0.0028288988 0.019244686 0.017678622 -0.00884155
000210 7d e5 e1 3c 41 13 d5 bd 34 a9 ba 3c a7 fd a6 bc
       0.027575249 -0.10404063 0.02278576 -0.020384623
000220 9a 4f fa bb 99 f0 e9 bc 4e ec fb bd 82 61 5a 3c
       -0.007638884 -0.028557109 -0.12300931 0.013328912
000230 f7 9e fb 3c a9 89 b2 bd 29 b0 2f bd 6f 11 b7 3c
       0.030715449 -0.08717663 -0.04289261 0.02234718
000240 64 83 09 80 3b 70 0c 80 8e 9c 02 00 c4 c8 06 00
       -8.73654e-40 -1.142287e-39 2.39832e-40 6.23034e-40
000250 d7 30 06 80 e0 7d 05 80 2f 4c 0a 80 47 65 07 80
       -5.68533e-40 -5.04333e-40 -9.45684e-40 -6.7918e-40
000260 05 da 05 00 af cb 02 3c 65 e2 69 3d 36 7b 08 3d
       5.37388e-40 0.007983132 0.057100672 0.033320628
000270 78 cd 00 3c 36 22 9c bd 5e bb e4 3b 09 6e 67 3d
       0.007861488 -0.07623713 0.0069803437 0.056501422
000280 7f e4 30 bd 48 ce b0 b8 f3 75 a1 3c b8 f4 5f bd
       -0.04318666 -8.430757e-05 0.019709563 -0.05467674
000290 65 91 c0 bd 85 d6 e8 3c 0f d8 b2 bd 43 9d 94 3c
       -0.09402732 0.028422603 -0.08732616 0.018141394
0002a0 af 84 9d 3c 8c 11 a0 bd 82 4a eb bc 45 d3 e4 3c
       0.019228308 -0.07815847 -0.028722052 0.027932772
0002b0 75 ec 97 3d 73 a4 a5 bc 3f 96 3f 3c b5 63 9c 3d
       0.074181475 -0.020220017 0.011693536 0.07636205
0002c0 6e 6a e8 bc 93 b5 d5 bd 89 fc d1 bc de e4 a8 bb
       -0.028371062 -0.10435023 -0.025633113 -0.005154236
0002d0 fa e6 0f 00 f1 05 05 00 a7 6b 0f 00 11 a3 03 00
       1.460391e-39 4.61309e-40 1.416151e-39 3.34004e-40
0002e0 3f d4 08 00 c0 31 0d 00 bf 20 09 00 08 21 04 00
       8.10824e-40 1.211708e-39 8.38267e-40 3.79191e-40
0002f0 63 55 0e 80 ee c4 51 bd 47 f9 bc bc 2a 96 6d bd
       -1.316328e-39 -0.051213197 -0.023068083 -0.058004536
000300 9e 82 4c bb 5d 7b 22 3d 78 dd bd 3d b7 69 72 3c
       -0.0031205784 0.03966843 0.092707574 0.014795712
000310 c1 af a4 3d cd da 9f 3d b9 23 02 3d 51 28 2a 3d
       0.08041335 0.07805405 0.03177235 0.041542355
000320 5b 0c fb bb 89 3d 80 bb e3 f3 a1 3c 13 74 cc bd
       -0.007661385 -0.0039135856 0.019769615 -0.09983077
000330 50 b4 85 bd c9 b3 63 bd 12 f8 7f bd e3 3f 4f bd
       -0.065285325 -0.05559138 -0.062492438 -0.050598036
000340 30 3e 9c bd a6 7c 2e bd 34 11 5d 3d 76 f6 9a 3d
       -0.07629049 -0.042599343 0.053971484 0.0756654
000350 91 b6 9d 3d de 1c 3c bd c1 fb 75 3d 55 1e 52 bc
       0.077008374 -0.045925967 0.060054544 -0.0128246145
000360 5d b0 23 3d 17 b4 94 3d 42 eb ef 3d 26 72 64 3d
       0.039963115 0.07260912 0.11714794 0.055772923
000370 25 28 58 3d 17 47 60 3d b0 46 bb 3c 38 a7 1e 3d
       0.05277266 0.054755297 0.022860855 0.03873369
000380 de 68 61 bd 24 e7 09 80 05 5e 07 80 02 fb 01 80
       -0.05503165 -9.09437e-40 -6.76576e-40 -1.8188e-40
000390 4d 0d 0c 00 4f 40 06 80 a8 b6 02 00 27 97 01 80
       1.106797e-39 -5.74083e-40 2.49196e-40 -1.46059e-40
0003a0 4c f7 0b 00 7f 94 01 00 9a 3d 13 3d 7d 8b 92 bd
       1.098904e-39 1.45106e-40 0.03594742 -0.071555115
0003b0 e9 97 aa 3c e8 4b 10 3b f4 dc d7 bb e7 be dc bb
       0.02082439 0.00220179 -0.006587619 -0.0067366245
0003c0 5d bd 94 bd b8 14 c0 bc 48 9c 9d bc 82 52 08 00
       -0.07262681 -0.02344738 -0.01923956 7.64282e-40
0003d0 83 e6 0f 80 21 ec 0b 00 18 ca 03 00 81 e1 00 00
       -1.460224e-39 1.094898e-39 3.48004e-40 8.0896e-41
0003e0 35 c7 0b 00 b6 4c 01 80 62 71 01 80 83 13 06 80
       1.081652e-39 -1.19354e-40 -1.3251e-40 -5.58012e-40
0003f0 4e f0 a3 bc 87 54 7b bc 39 1b c2 3c 10 75 a3 3d
       -0.020012047 -0.015339977 0.023694621 0.07981312

conv3.bias f4 [128]
000000 69 14 f4 bc e7 16 07 bd a8 5b 9c a2 02 f5 ee 3b
       -0.029794889 -0.032980826 -4.238093e-18 0.007292391
000010 bb 00 31 3c 88 02 6b bd 98 7d c6 3d 54 6c 39 3a
       0.010803397 -0.05737546 0.09691924 0.0007073332
000020 e9 0b 11 3a 60 42 e8 b7 ba 75 2c bd b1 df d0 bb
       0.0005533086 -2.7687463e-05 -0.04210446 -0.0063743223
000030 41 14 6d 3d 3d e2 e3 ad 91 60 17 3d 80 97 df b6
       0.057880644 -2.5907382e-11 0.036957327 -6.663555e-06
000040 d3 48 64 bb ca bf 4f 3d 22 6d 24 bd 40 f6 64 ae
       -0.0034833446 0.050720014 -0.04014314 -5.2059912e-11
000050 cd 1e 73 3c 08 53 ad b0 89 83 23 bd 03 34 20 b6
       0.014838886 -1.2611006e-09 -0.039920364 -2.3872133e-06
000060 01 1c 72 3d 77 fd bf bd bf ef 23 3c c3 79 c6 3c
       0.059108738 -0.093745165 0.01000589 0.024227982
000070 77 ae e3 ba ae 2a f8 3d 13 35 02 af 90 b5 7e bd
       -0.001737072 0.121175155 -1.1842287e-10 -0.06218487
000080 ce d7 5e bd 11 25 8e b1 f6 fb f5 3c 61 ef 79 3d
       -0.054405026 -4.136958e-09 0.03002737 0.061019305
000090 6b bf 1f bc 65 fa 4b bd 08 19 fd b4 5c 29 b1 3c
       -0.009750227 -0.04979934 -4.7143135e-07 0.021626167
0000a0 41 0a f4 3d 4b 13 ad 3c 5e 84 c5 9e fc d1 10 3e
       0.11916018 0.021127364 -2.0912932e-20 0.14142603
0000b0 c2 e7 bd bc ef 2d 45 3d 3f ae c9 b7 48 65 75 bd
       -0.0231818 0.04813951 -2.4042207e-05 -0.059911042
0000c0 c9 2e 5b b3 ef 3e f2 b8 f7 ce 71 3b 13 d4 0e aa
       -5.1032462e-08 -0.000115511815 0.0036897042 -1.2685712e-13
0000d0 23 c7 9e ab 01 be d1 b8 01 1f cf bb 29 25 d6 bb
       -1.1281847e-12 -0.000100012876 -0.0063208346 -0.0065351916
0000e0 05 31 01 3d 18 af b3 3d 75 b2 b6 3c 2f d0 40 bd
       0.03154089 0.08773631 0.022301892 -0.04707354
0000f0 59 5a f3 3c 71 f3 78 bd 8d 71 fb bc 82 6d 72 3d
       0.029706167 -0.06077904 -0.030693794 0.059186466
000100 30 a0 ce ab cd 11 91 ac c0 58 85 3c a6 5d 80 3d
       -1.4681641e-12 -4.123124e-12 0.01627767 0.06267862
000110 55 b3 0c bc c6 45 0c 3e 89 e4 dc bc 59 a3 63 bd
       -0.008587678 0.13698491 -0.026964443 -0.055575702
000120 78 24 b7 3d fc 61 f0 3c 78 80 24 3d 88 e9 f7 bb
       0.08942503 0.029343598 0.04016158 -0.007565681
000130 f8 1e 87 b8 a4 f2 14 b9 ad 16 1e bd 9a 6b 89 3d
       -6.44307e-05 -0.0001420477 -0.038595844 0.067099765
000140 81 35 cd 3d 73 21 3e 3d cd 12 6c bb 98 d6 8f 3c
       0.10019971 0.04641862 -0.0036021948 0.017558381
000150 1f 44 92 bd 94 c8 07 3e 61 cc da b9 c3 10 ca b7
       -0.07141899 0.13260108 -0.00041732474 -2.4088082e-05
000160 5e 1c 45 3d f4 fa bf 3b 12 61 99 bc 77 1b 52 b8
       0.048122756 0.0058587734 -0.018723045 -5.009348e-05
000170 80 c7 13 3d 1a c9 f6 bc af f7 30 bd 1f 94 b7 bd
       0.03607893 -0.03012519 -0.04320496 -0.08963799
000180 b8 6f 0e 3e e3 1f 8a 3d bd b1 0c 3d ad a3 38 bc
       0.13909805 0.06744363 0.034349192 -0.011269492
000190 93 41 f0 3c 64 64 8c b5 6e bd ac a5 aa 52 60 b4
       0.029328143 -1.046003e-06 -2.9965606e-16 -2.0891699e-07
0001a0 f9 28 d2 9c 2f a8 8f bb cf ff e3 a8 24 2f b7 3c
       -1.3907225e-21 -0.0043840627 -2.5313002e-14 0.022361346
0001b0 73 f6 8e 3c 7f a8 96 3d d5 a6 14 a4 d9 ed c7 3d
       0.0174515 0.07356357 -3.2233697e-17 0.09762163
0001c0 92 90 25 3e c2 9c a9 3d 07 05 a9 3d 84 c4 40 3d
       0.1616843 0.08281852 0.08252912 0.047062412
0001d0 f3 87 e0 3c b8 ae 71 b3 c0 8e e8 bc 92 54 f8 3a
       0.027408576 -5.627109e-08 -0.028388381 0.0018946102
0001e0 17 be 90 3d 62 15 2b 3c cc 97 e8 3d 7a 3a c4 bc
       0.07067507 0.01044211 0.11357078 -0.023953665
0001f0 90 ea 09 3d 93 6d 7e 3d c5 83 0e bd e5 7d 13 bd
       0.03367096 0.062116217 -0.034793634 -0.036008734

act_conv1.weight f4 [4, 128, 1, 1]
000000 ae 8b 23 3d e8 f3 69 bd c4 a8 00 00 4c 52 81 bd
       0.03992813 -0.057117373 6.0542e-41 -0.06314525
000010 b9 6a 18 3e c6 47 5f 3c ab 17 08 bc 8b a1 86 3e
       0.14884461 0.013627952 -0.008306424 0.26295123
000020 64 ef cb 3d fb fe 06 00 9d 3c c2 3c 70 55 10 3c
       0.099577695 6.42483e-40 0.023710543 0.008809432
000030 62 1b 68 3c 02 4b 07 00 c8 80 58 3e 73 44 08 00
       0.014166685 6.69756e-40 0.21142876 7.59239e-40
000040 69 51 e4 3d 3f 8d dd bd 3c 14 37 bc 29 79 ab ad
       0.1114834 -0.10817956 -0.011174258 -1.9494255e-11
000050 0b ea 4c be 50 e8 08 80 60 3d 01 3b e8 0f 0c 80
       -0.20011155 -8.18022e-40 0.001972042 -1.107732e-39
000060 ae ad 52 3e 4b c6 57 be 90 7f c2 bd eb 13 c5 3d
       0.20574066 -0.21071737 -0.09496987 0.0962294
000070 c2 b4 6b 3d 2c cd a9 3e 8d 89 09 80 bf 54 d4 3b
       0.05754543 0.33164346 -8.75863e-40 0.006479829
000080 d7 35 56 3e 85 de 03 a4 ca 67 fe 3d a0 36 82 3d
       0.20918976 -2.8594578e-17 0.1242214 0.06358075
000090 04 7e 56 b9 f5 52 31 be 3b d8 02 80 5d 60 24 be
       -0.00020455575 -0.17316802 -2.6124e-40 -0.16052385
0000a0 6d c6 2a be 6a 4c 3b 3e e6 75 8b ae d0 5b 4b 3e
       -0.16677256 0.18290868 -6.341931e-11 0.19859242
0000b0 61 e2 39 3e bf c4 23 3e 42 47 07 80 1f 13 1e be
       0.18152763 0.15993021 -6.68411e-40 -0.15436982
0000c0 49 f8 12 00 c6 cf 08 00 0a a6 60 3c be 42 0a 00
       1.742107e-39 8.09219e-40 0.013711462 9.42298e-40
0000d0 cf 10 00 80 ed d3 83 a5 e3 80 2b be e0 bf aa 3d
       -6.03e-42 -2.2868484e-16 -0.16748385 0.083373785
0000e0 62 d5 23 3d 83 f6 e2 bd 3c e0 ef 3d 82 e0 6a be
       0.03999842 -0.11082175 0.11712691 -0.22937205
0000f0 37 e0 84 3d 54 71 1d 3e fc 74 59 be e0 b9 79 3e
       0.06488078 0.15375262 -0.21236032 0.24387312
000100 35 20 42 b5 da 9e 7a 34 5a 2b 63 3b 58 3e 87 be
       -7.23175e-07 2.3340854e-07 0.003466329 -0.26414752
000110 ad c3 51 3e b1 e5 91 3e e5 c5 8d bc 77 cb 2f 3e
       0.204848 0.28495553 -0.017306278 0.1716746
000120 a2 48 84 3e 07 0d cf be d3 2d e7 bd d8 15 78 bc
       0.25836664 -0.40439627 -0.11288037 -0.015141927
000130 34 36 bc b5 f1 4e 08 00 7a 8a af be c1 ba 52 bd
       -1.4022867e-06 7.63003e-40 -0.34285337 -0.051447634
000140 c1 2c 13 3e 40 6d ea 3d e7 38 95 3e fe 45 45 bc
       0.14372541 0.11446619 0.29144976 -0.012040613
000150 c8 73 22 3e 38 cb 2b be 50 e3 e5 ba 5a 43 02 80
       0.1586448 -0.1677674 -0.0017539058 -2.07832e-40
000160 01 16 4c 3d fa fb ba 3c cb 88 01 3e 44 02 05 00
       0.049825672 0.02282523 0.12649839 4.5999e-40
000170 fc 95 b4 3d 14 c5 34 3d fb d5 28 bd 5a 59 1b 3e
       0.0881767 0.04413326 -0.041219693 0.15170804
000180 a1 5e 17 be c4 06 08 3e b6 c7 a1 bd 71 36 39 3d
       -0.14782192 0.13283831 -0.0789942 0.045217935
000190 df 0e ac 3d a1 0f 08 80 f0 5c 0c 14 de c1 0c 00
       0.08401274 -7.4029e-40 7.0865224e-27 1.171572e-39
0001a0 41 59 ca 9e fc d9 13 3d 22 ab 33 86 6a a0 41 3d
       -2.1424496e-20 0.036096558 -3.3791887e-35 0.047272123
0001b0 06 47 92 bd 94 ec 87 be 42 88 09 00 34 c6 50 be
       -0.07142453 -0.26547682 8.754e-40 -0.20388108
0001c0 40 d5 9c 3d 50 c2 c5 3d a9 0a 8a 3e 0b 92 49 be
       0.07657862 0.09656203 0.26961258 -0.19684617
0001d0 ba a8 13 3e 39 bd e4 b1 fe ec bd 3d 38 11 29 3e
       0.14419833 -6.6571855e-09 0.09273718 0.16510475
0001e0 84 08 0c 3e 13 57 a1 bd cc 96 6d be f2 05 3a 3e
       0.13675123 -0.07877936 -0.23202056 0.1816633
0001f0 11 04 1a 3e 95 62 40 3e 0e d9 af bd a9 1f 15 3e
       0.15040614 0.18787606 -0.08586322 0.14562859
000200 39 fe 83 3c ed 92 74 bd 47 e3 73 32 a1 0b 94 3e
       0.016112434 -0.05971043 1.41961385e-08 0.28915122
000210 04 1d fd bc ff 04 6a bd f5 3b 4d 3e 44 6a a8 bd
       -0.030897625 -0.05713367 0.20042403 -0.082233936
000220 93 98 97 3c fc d5 04 80 ad cb 32 bc f3 c8 86 3d
       0.01850537 -4.44105e-40 -0.010912818 0.06581297
000230 5c d1 96 3e a0 95 08 80 fb a0 28 3e a5 01 02 00
       0.29456604 -7.8836e-40 0.16467659 1.84261e-40
000240 f3 49 a1 3e cb af 71 3d c7 de a6 3e 5f e4 9a ae
       0.3150173 0.05900554 0.3259184 -7.043676e-11
000250 8d 48 1a 3e 12 ac b8 35 08 ea 9d 3d 1c 6d 06 00
       0.15066738 1.3759147e-06 0.077106535 5.90154e-40
000260 2f ba 98 3d 33 52 b1 3d c9 67 ba 3d 50 c9 66 be
       0.07457387 0.086582564 0.09101827 -0.22537732
000270 97 d6 39 3e 90 5e 17 be 93 bf 07 80 58 1e 89 3e
       0.18148266 -0.14782166 -7.11572e-40 0.26780963
000280 e1 03 86 3e 50 aa d0 b4 72 42 35 be f3 85 c4 be
       0.26174834 -3.8866938e-07 -0.17701128 -0.38383445
000290 ce 64 6a be c3 7a 0a 3d 03 96 07 00 39 f6 e6 3c
       -0.22890016 0.03380848 6.96663e-40 0.02819358
0002a0 cb 2d 41 bd ad 8b 04 3f b2 cc 65 a7 d5 a6 02 bd
       -0.047162812 0.5177563 -3.18911e-15 -0.031897385
0002b0 d7 81 1c 3d c2 18 86 bd 37 56 86 3a cf 96 18 3e
       0.038209762 -0.06547691 0.0010249083 0.14901279
0002c0 27 f0 a4 b7 19 b9 03 80 c1 f8 6c 3e 2c ad 7b b1
       -1.9662153e-05 -3.41907e-40 0.23141767 -3.6623744e-09
0002d0 81 99 09 80 b5 3f d2 32 d3 91 1b 3e be 4a fb 3d
       -8.81586e-40 2.4476188e-08 0.15192346 0.12270115
0002e0 b8 46 f1 bc 68 26 6a 3e 94 04 a1 3d 4b 7d 01 3e
       -0.029452667 0.22866213 0.07862201 0.12645452
0002f0 e6 e5 cc bd 75 88 38 3e 39 b6 76 3d 24 9b 45 3d
       -0.10004787 0.18020804 0.060232375 0.048243657
000300 75 b4 5c ae fd 21 09 80 60 22 90 bd 18 e2 e2 3d
       -5.0182487e-11 -8.38712e-40 -0.070378065 0.1107828
000310 ed cc 90 3e 77 af 36 be e2 a8 8e 3e 16 cb 44 3e
       0.28281346 -0.17840372 0.27863222 0.19218096
000320 7a 07 42 3c ee a1 6f be 60 3a 4a 3e 8c 4b b6 3e
       0.011842603 -0.23401615 0.19748831 0.35604513
000330 40 a3 fa b9 e6 f3 04 80 3b 06 ec 3d f8 34 51 3e
       -0.00047805347 -4.54836e-40 0.11524626 0.20430362
000340 ec dd 0b 3e 09 68 a1 bd 82 f1 d6 3d f7 be b5 3e
       0.13658875 -0.07881171 0.10495283 0.35497257
000350 51 c6 2e 3e 13 e3 be bd c8 da d2 39 71 ab 28 82
       0.17067839 -0.09320655 0.00040217326 -1.2391892e-37
000360 b9 d1 8a 3d e9 5b 66 3e 19 b7 07 3d b7 9e 03 80
       0.06778283 0.22495998 0.0331336 -3.32443e-40
000370 2d 9e 33 3d 44 34 a3 3d 75 13 0e 3e 99 bd 0d 3e
       0.04385202 0.07968953 0.1387461 0.13841857
000380 c9 91 33 bb fe 9f a6 be cc 9e ab 3e a4 7d 16 3e
       -0.0027400127 -0.3254394 0.3351959 0.14696366
000390 4a 22 c5 bd 34 a6 0a 80 db fd 4b 28 c0 14 0c 00
       -0.09625681 -9.77977e-40 1.132381e-14 1.10947e-39
0003a0 f7 8c 2e a5 98 2f de 3d 1a e1 ce ad a4 07 99 3a
       -1.5139855e-16 0.108489215 -2.3519454e-11 0.0011675251
0003b0 3b a8 08 bd 9c 0e b3 3c cc 7b 0b 80 ac 8e f3 3d
       -0.033363562 0.021857552 -1.0546e-39 0.11892447
0003c0 b6 72 3c be 82 b5 58 be 76 2a 5d 3c 91 f6 8e 3d
       -0.18403134 -0.2116299 0.013498893 0.069806226
0003d0 e8 50 d6 bd 1e ee 2c b5 94 33 fa 3d b4 1f 52 bb
       -0.104646504 -6.44215e-07 0.12216869 -0.0032062354
0003e0 fe 0c 0f be 66 2b 83 3e 01 10 f3 3d c1 35 d1 3e
       -0.139698 0.25619048 0.11868287 0.40861323
0003f0 72 1f 26 be 47 c4 a9 3d 18 c9 b9 bd 51 f5 18 be
       -0.16222933 0.0828939 -0.09071559 -0.14937331

act_conv1.bias f4 [4]
000000 f9 74 ec bc a2 26 fc bd c2 3c b8 3d 7a 34 a5 b5
       -0.02886437 -0.12312056 0.08995964 -1.2308731e-06

act_fc1.weight f4 [81, 324]
000000 15 a9 c4 3c 23 ce d6 bc 2f 92 b0 3b f6 62 0a 3d
       0.024006406 -0.02622134 0.00538852 0.033785783
000010 ad f4 c8 3c 3a ae ed 3c 60 24 04 39 3f 8c 92 bc
       0.024530733 0.029013742 0.00012602052 -0.01788914
000020 fd 0a 89 bc 6e a1 f9 3b 4a d2 aa ba 09 2f 85 3a
       -0.016728872 0.007618121 -0.0013032642 0.0010161112
000030 e4 4a 41 bc ec 52 19 3c 04 35 5e bc e5 5d 98 bb
       -0.0117976405 0.009358149 -0.013562445 -0.004649865
000040 c4 bc f1 bc 0d 11 d0 bc ac f1 3d 3c 28 e7 fa 3c
       -0.029508956 -0.025398755 0.011593264 0.030627802
000050 40 65 3f bc 5c 34 ca bc 5b 26 c5 bc 7e 90 88 bc
       -0.011681855 -0.02468317 -0.02406614 -0.016670462
000060 45 3c f0 bb 97 9d 97 bc 30 cc f8 bb 9e 23 40 3c
       -0.0073314034 -0.018507762 -0.0075927004 0.011727242
000070 3e fa 3f 3d a7 7b a6 bc bc eb 61 bc 0a bd 36 3c
       0.04686951 -0.020322634 -0.013789114 0.011153469
000080 cc 71 e9 3c 26 ee 39 bc b0 0b 8c bc 8b 37 bc 3c
       0.028496645 -0.011348283 -0.017095417 0.022975704
000090 8b f5 3e bc f2 f5 8c 3c 1a f1 7b bc 69 a9 e3 bb
       -0.011655222 0.01720712 -0.015377307 -0.0069476855
0000a0 4c ce c4 3c 20 4d db 3c 6a 8a ba bc e0 c7 52 bc
       0.024024151 0.026770175 -0.02277108 -0.012865037
0000b0 f6 11 eb 3c 76 f4 24 3c 23 da 0e bc ee 3d 99 3c
       0.028695088 0.01006805 -0.008719 0.018706288
0000c0 a3 4c a1 bc 18 78 88 bc 38 aa 79 bc b5 74 4f bc
       -0.019689864 -0.016658828 -0.015238337 -0.0126621025
0000d0 94 7c 51 bb 1b b8 13 3d 41 f6 60 3d 85 41 cc bc
       -0.0031965123 0.03606425 0.054922346 -0.024933586
0000e0 dc a7 b8 3c 6e 27 ca ba 0b c3 36 bb 09 3c 18 bc
       0.02254098 -0.0015423128 -0.002788725 -0.009291657
0000f0 ca 60 00 3c 83 b4 34 bc fa 9a 44 39 cb 54 2b 3d
       0.007835576 -0.0110293655 0.0001874975 0.04182891
000100 92 69 75 bc 45 64 1e bd 3b d8 09 bc 20 5a 0d 3c
       -0.014978783 -0.038669843 -0.00841337 0.0086274445
000110 93 c5 e4 3c fd 50 bf 3c 28 bf de b9 16 11 bd bc
       0.027926242 0.023354048 -0.00042485562 -0.023079436
000120 ba 1a fe 3c 38 19 3d 3c 5c 52 99 3c a4 58 7c bc
       0.031018604 0.011541657 0.01871603 -0.015401993
000130 90 dd aa bb f4 63 a8 39 4b 75 9f 3c 5e 9f ad b9
       -0.0052144006 0.00032117928 0.01946511 -0.0003311587
000140 c2 d6 f8 3a 23 7e 8b 3c 6c 70 28 3c 59 80 37 3c
       0.0018984901 0.01702792 0.01028071 0.011200034
000150 93 9e 04 3c 13 b3 ae bb c8 cb dc b8 c4 87 a1 3c
       0.008094448 -0.005331406 -0.00010528375 0.019718058
000160 fa a8 30 3c b3 33 00 3d 80 79 83 bb 0d 1c dc 3c
       0.010782475 0.031299304 -0.0040122867 0.026868844
000170 d2 9f 3e 3d 1b 08 b2 3b df fe 56 3c 94 cb 55 3c
       0.046539135 0.005433095 0.013122289 0.013049025
000180 00 3a 18 3d 62 74 af 3c 03 c3 5e 3b 5b ba df bb
       0.037164688 0.0214178 0.0033990748 -0.006827635
000190 fa db 84 bc ab de 82 3c b3 1d 0a 3b f8 9d d5 3c
       -0.016218174 0.015975317 0.002107483 0.026076302
0001a0 7a 28 16 bc 18 be e1 3c 32 8a a9 3c d1 c3 9c 3c
       -0.009164924 0.027556464 0.02069578 0.019136341
0001b0 b8 65 5a 3c 53 b2 c0 bc 04 f3 cd 3c 5f 9d 15 3c
       0.013329916 -0.023522532 0.025140293 0.0091317585
0001c0 95 14 1d bb ab 9f 85 bc a8 a1 bd bb 83 d9 92 bb
       -0.0023968567 -0.016311487 -0.005787093 -0.004481496
0001d0 0b 33 3b 3b 06 16 f8 3c 3d 3e 1c 3c 70 e2 31 3c
       0.002856436 0.03028394 0.009536323 0.01085721
0001e0 3e 96 e3 3b d3 8b 9e bc d2 f6 b2 bb 9e 30 9c 3c
       0.0069454005 -0.019353783 -0.005461552 0.019066151
0001f0 c9 93 d0 3b 8f 29 4d bc 53 4b 1e 3d 23 6e 27 3d
       0.0063652736 -0.012522115 0.038646054 0.04087652
000200 fa 91 83 3c be 2c e6 3b bc c7 ed b8 a8 a6 7b ba
       0.016060818 0.0070243767 -0.00011338244 -0.0009599724
000210 0a c9 38 bc d3 40 cb 3b 33 8b b1 bb 61 1c 14 3d
       -0.0112784 0.006202796 -0.005418205 0.036159877
000220 9d ce 97 3d 30 ca 4f 3c 39 f8 6b 3c 24 2d 37 3c
       0.07412455 0.012682483 0.014402443 0.011180196
000230 6f 86 a2 3c 81 7a b8 3c 6a 20 a3 3c 57 3b 86 3c
       0.019839494 0.022519352 0.019912917 0.016385717
000240 ac 38 c5 3d 00 7f 90 bc a2 41 ff 3c 84 fe d4 3c
       0.0962995 -0.017638683 0.031159226 0.026000269
000250 83 94 c7 ba f2 0d d9 bc b3 10 03 bd 41 13 b8 3c
       -0.0015226755 -0.026495907 -0.031998347 0.022470118
000260 38 ab 05 3c d8 33 98 bd f9 78 6f 3d 4a 9a c0 bb
       0.0081584975 -0.074317634 0.058464978 -0.0058777677
000270 de fb f3 3c 39 bb 3b 3c a8 78 9c 3b 0e 63 4f bc
       0.029783186 0.011458212 0.0047751255 -0.012657894
000280 68 f1 86 bb d3 60 d7 39 18 96 1c bd 73 ff de bc
       -0.0041181333 0.00041080135 -0.038229078 -0.027221417
000290 b4 3c 11 b8 13 08 9f bc 89 72 82 bc e6 37 0f bd
       -3.4627228e-05 -0.01941303 -0.015923755 -0.03496542
0002a0 2b 8d 03 bd 30 d8 53 bc 43 09 fd bb 5f b3 25 bd
       -0.03211705 -0.012929961 -0.0077220513 -0.040454265
0002b0 22 70 90 bc 27 46 11 bd 40 a4 1a bd 9b ad 8a 3b
       -0.017631594 -0.035467293 -0.037754297 0.004232121
0002c0 d9 65 bb bb 1b 1b a6 bb 00 0b c4 bc f6 7e b8 b9
       -0.0057189283 -0.005069149 -0.023931026 -0.00035189808
0002d0 1c 7d 89 bc 4c b0 1b 3b d1 6c fb bb 96 d4 b3 bc
       -0.01678329 0.0023756204 -0.007672884 -0.021951955
0002e0 16 05 9b 3c 3a 4d b8 3c c9 2b d0 bc b3 1b 91 bb
       0.018923324 0.022497762 -0.025411503 -0.004428351
0002f0 fc b4 e0 bc 73 8e ce bc ad d1 e0 3c dc 03 88 bc
       -0.02743005 -0.02521441 0.027443731 -0.016603403
000300 be 8e 3f bb d4 a2 cb bc 54 20 73 bb fb b8 04 3c
       -0.0029229368 -0.024857916 -0.0037098126 0.008100743
000310 8d 8a 3f bc d0 34 01 bd 63 ba a9 bb 78 2e cc 3c
       -0.011690748 -0.031544507 -0.0051796897 0.024924502
000320 06 b4 80 bd ee 94 cc bb 57 87 6c bc cd be 60 bb
       -0.06284337 -0.0062433397 -0.014436564 -0.0034293414
000330 b8 fe 41 ba 98 6f ba 3a 01 50 71 bc b6 2c 42 bb
       -0.0007400322 0.0014223931 -0.014728547 -0.00296287
000340 b4 43 fa 3c f6 c8 11 bd d7 c8 00 3b 96 62 1b bc
       0.030549861 -0.035592042 0.001965096 -0.009483954
000350 37 d4 56 bc 40 9a 18 bc ab a7 8e bc 32 31 d0 bb
       -0.013112119 -0.00931412 -0.017413935 -0.006353521
000360 a9 ee 93 3c 75 83 3c 3d fc 8d 87 bd a9 f0 ac bc
       0.018058138 0.046023805 -0.06618878 -0.02111085
000370 ad e8 20 bd 69 a3 49 bc 90 95 cd bb b8 28 b1 bc
       -0.039284397 -0.012307026 -0.0062739328 -0.021625862
000380 57 aa 17 3a f8 d4 d5 bd c6 d6 39 be f8 65 9d 3d
       0.00057855755 -0.10441011 -0.18148336 0.076854646
000390 ef 86 a5 3c a9 2d f3 3c c8 56 15 3c c1 49 06 bb
       0.020205943 0.029684858 0.009114929 -0.0020490738
0003a0 49 98 93 bc 86 e2 ec bc b1 14 fc ba 73 18 76 bd
       -0.018016951 -0.028916609 -0.0019232241 -0.06008191
0003b0 68 b2 42 3d f9 f6 50 3b 12 94 e8 3b 6e dc 88 bc
       0.047533423 0.0031885488 0.0070977295 -0.016706672
0003c0 7b 46 bf 3c ce e1 f3 bb 79 61 db bb 16 c3 02 00
       0.023349037 -0.0074426895 -0.0066949693 2.53655e-40
0003d0 c3 fd 06 00 8d e1 08 80 05 4a 04 00 fe 8f 00 80
       6.42046e-40 -8.15596e-40 3.93895e-40 -5.1655e-41
0003e0 84 06 09 00 28 3f 05 00 1e 9e 07 80 56 23 13 80
       8.28857e-40 4.81834e-40 -6.9957e-40 -1.75755e-39
0003f0 a9 4b 06 80 16 1e 04 80 1a 01 09 80 82 99 02 00
       -5.78155e-40 -3.78135e-40 -8.26915e-40 2.38739e-40

act_fc1.bias f4 [81]
000000 6f 8b 0c bd 47 ae 29 bd 9e a3 8a 3c 2b 42 1f 3e
       -0.03431266 -0.04142597 0.016923722 0.15552585
000010 5a ad 07 3e 6c b4 2b 3e 46 6d 87 3b 63 a1 15 bd
       0.13249722 0.16768044 0.0041328995 -0.036530863
000020 33 1d 26 bd ed cc 17 bd 74 30 11 bd fc 0a 4d bd
       -0.04055519 -0.037060667 -0.0354466 -0.050059304
000030 41 6d 00 3d 0f fc 4b 3e 5c e0 56 3d 73 38 d5 bc
       0.031354193 0.19920371 0.05246006 -0.026027894
000040 7b 60 b7 bc fa ec 1d bd da 64 d4 3b 8d 76 2b bd
       -0.022384873 -0.038556077 0.006481749 -0.041861106
000050 da 04 e4 bc 4f 7f 35 bd f2 16 43 bd 51 b0 38 bd
       -0.027834345 -0.044310864 -0.047629304 -0.045090023
000060 a5 24 c3 bc 2b e2 af bc 7a b2 54 3c 48 c5 19 3e
       -0.023821184 -0.02147015 0.012982005 0.15016663
000070 82 68 11 3d 0b 71 21 bd c1 5f 95 3c b8 84 24 3c
       0.035500057 -0.039414447 0.018234136 0.010041408
000080 80 8b 9f 3c 28 13 3c bd 76 60 14 3d f6 f9 1d 3e
       0.019475698 -0.045916706 0.036224805 0.15427384
000090 56 1d 12 3e 12 50 12 3e 22 f5 19 bd cf 48 d5 3c
       0.14269003 0.14288357 -0.037587292 0.026035694
0000a0 a8 11 84 3d 07 00 41 3d 3b 94 33 bd e7 2e 0b 3e
       0.0644868 0.047119167 -0.043842535 0.1359211
0000b0 0a 87 ee 3d 50 a2 25 3e 68 78 dd 3c c6 b8 3b bd
       0.116468504 0.16175199 0.027034953 -0.04583051
0000c0 6c ec 98 ba f9 28 19 3d 6a c3 e0 3b 39 46 2e bd
       -0.0011667139 0.03739259 0.0068592327 -0.04254744
0000d0 cd ef 22 3d ce 9a 1e 3e 21 10 a4 3c b5 1b 77 bd
       0.039779473 0.15488741 0.020027222 -0.060329158
0000e0 31 3f 6c bc 9a 00 5d bd 50 4c 1a bd a6 38 51 bd
       -0.014419363 -0.05395565 -0.037670434 -0.051079415
0000f0 49 2a da bc 6a b5 29 bd bb ee 17 3d 12 a9 07 bd
       -0.026631491 -0.041432776 0.037092905 -0.033120222
000100 4a 2c a1 bc e2 f8 2e bd d1 d3 cf 3c bd 35 28 3e
       -0.019674439 -0.042717822 0.025369557 0.1642675
000110 82 fa 14 3d 84 ae 23 bd 05 2a 9f bc 7d 0a 28 bd
       0.036371715 -0.039961353 -0.019429216 -0.041025627
000120 90 8a 24 bd 1e ac 2f bd 68 4d 39 bc 6a 87 22 3e
       -0.040171206 -0.042888753 -0.011309959 0.15871969
000130 bd 6b 13 3e 38 3a 21 3e 2e 05 74 3c 4a 50 19 bd
       0.14396568 0.15744865 0.014893813 -0.037430085
000140 ac 0f 16 bd
       -0.03663604
